models/qmix_mixing_ep2000.pth (torch, 369378 bytes, 10 tensors)

hyper_w_1.weight f4 [768, 78]
0	0x3d1501e2	0.03637875
1	0x3cf3038c	0.029664777
2	0xbd20d466	-0.03926506
3	0x3dc1db05	0.09465603
4	0x3dc309db	0.09523364
5	0x3d8c5a65	0.06853179
6	0xbd8826d0	-0.06648028
7	0xbcb70ab0	-0.022343963
8	0x3ddf4fbb	0.10903879
9	0xbde1b894	-0.110215336
10	0x3d84577b	0.06461998
11	0xbd690bbf	-0.056895968
12	0x3d94402b	0.072388016
13	0x3b95d870	0.0045729205
14	0xbde029d8	-0.10945481
15	0x3dad2205	0.08453754
16	0xbdc62ed4	-0.096769005
17	0xbd96aec1	-0.073575504
18	0xbdd99aa4	-0.106251985
19	0xbda6a6fd	-0.08137319
20	0xbd3217cc	-0.043479726
21	0x3d72c57a	0.05927036
22	0x3d0ae712	0.033911772
23	0xbd8f0c2e	-0.06984745
24	0x3de323ed	0.11090837
25	0x3d43c356	0.04779371
26	0xbd429dac	-0.04751365
27	0xbde5c311	-0.112188466
28	0x3dd051cd	0.10171852
29	0xbcce6ab0	-0.025197357
30	0x3d1718a2	0.036888726
31	0x3c80ba04	0.0157137
32	0x3d26405a	0.040588714
33	0x3c7854e8	0.015156962
34	0x3dc2d81d	0.095138766
35	0x3cbb4954	0.022862114
36	0x3be355b0	0.006937705
37	0x3c44ded8	0.012016021
38	0xbd71115c	-0.058854446
39	0x3d4c86da	0.049933292
40	0xbdb023bc	-0.08600566
41	0x3d27c316	0.040957533
42	0xbdc870ba	-0.09787126
43	0x396dca00	0.00022677332
44	0x3c0b0c58	0.00848683
45	0xbd43a1e2	-0.047761805
46	0x3d9a9021	0.07547022
47	0x3ca4c6ec	0.020114385
48	0x3be66780	0.007031381
49	0x3d7757c6	0.06038644
50	0x3cf68684	0.030093439
51	0xbd586e59	-0.05283961
52	0xbd1b531e	-0.037921064
53	0xbd6a4e23	-0.057203423
54	0xbdaa8051	-0.08325256
55	0xbdba162c	-0.0908626
56	0x3c24a1e8	0.010048367
57	0x3dbdb9f7	0.092639856
58	0x3da9a613	0.08283629
59	0x3b7db280	0.003871113
60	0xbcf418b4	-0.029796936
61	0xbc0e52a0	-0.0086866915
62	0xbd15238c	-0.036410853
63	0x3ca9385c	0.020656757
64	0xbd949d40	-0.072565556
65	0x3c550798	0.013002299
66	0xbc8f5864	-0.017498203
67	0x3d2d3982	0.04229117
68	0x3d81580b	0.06315621
69	0xbd870704	-0.06593135
70	0x3d305006	0.043045066
71	0x3dc3dc29	0.095634766
72	0xbce199c4	-0.027539141
73	0x3d870d47	0.06594329
74	0x3d1e8d92	0.03870923
75	0xbdbe0f3d	-0.0928025
76	0x3d76979a	0.060203172
77	0xbddb5cda	-0.107110694
78	0xbd546368	-0.051852614
79	0xbd9d15c4	-0.07670167
80	0xbcfd2efc	-0.030906193
81	0xbb510400	-0.0031893253
82	0x3cc759ac	0.024334751
83	0x3b08d0c0	0.0020876378
84	0x3d10c1a2	0.035340913
85	0xbcf82358	-0.03029029
86	0x3d2d32d2	0.042284794
87	0x3d2ad046	0.04170253
88	0xbd95fd4a	-0.07323702
89	0x3dc0a77d	0.09406946
90	0x3d91d34d	0.071203806
91	0xbcc27c6c	-0.02374097
92	0xbdb57a32	-0.088611975
93	0xbda23704	-0.0792065
94	0x3c712ae8	0.014719702
95	0xbc569f38	-0.013099484
96	0x3cddf4e4	0.027094312
97	0x3b2ff820	0.0026850775
98	0x3b5acc60	0.0033385977
99	0x3dbff6a7	0.09373217
100	0x3d9db643	0.07700779
101	0x3dd69d0b	0.10479172
102	0xbc0e8b30	-0.008700177
103	0x3d725566	0.059163474
104	0xbd4e5856	-0.050377212
105	0xbde2247f	-0.11042117
106	0xbd30ca2c	-0.043161556
107	0xbc3ddb58	-0.01158794
108	0xbda7271d	-0.08161757
109	0x3d3341ae	0.04376381
110	0x3dd2400b	0.102661215
111	0x3d4f6f02	0.050642975
112	0xbddb6624	-0.10712841
113	0xbbe25fe0	-0.006908402
114	0x3c864d04	0.016394146
115	0xbc1fd7e0	-0.009756058
116	0x3c231df0	0.009955868
117	0x3ba02e10	0.0048883036
118	0xbdb3da33	-0.087818526
119	0x3c596348	0.013268299
120	0xbcf899c0	-0.030346751
121	0xbd9719a8	-0.073779404
122	0x3da3ea95	0.08003727
123	0x3d84dedf	0.06487822
124	0x3d2849f6	0.04108616
125	0x3da66b83	0.08125975
126	0x3d932e9f	0.07186627
127	0xbd4fac0e	-0.050701194
128	0x3d9d5045	0.07681326
129	0x3dce765f	0.10081171
130	0xbdc4f9fa	-0.09617992
131	0x3d890da9	0.066920586
132	0x3da1bead	0.07897697
133	0x3d9e99df	0.07744192
134	0x3d2ffec6	0.04296758
135	0xbc7c0580	-0.015382171
136	0x3d5f3aea	0.054499544
137	0x3dcfb835	0.101425566
138	0xbd1d15e2	-0.038350947
139	0x3d801295	0.06253544
140	0xbd99ae67	-0.07503968
141	0x3c9dedc4	0.019278415
142	0x3d1a642e	0.037693195
143	0xbdb98caa	-0.09060033
144	0xbd85c6c0	-0.06532049
145	0x3c4d29c8	0.012522168
146	0xbc9686ac	-0.018374763
147	0xbdc03f6f	-0.09387099
148	0x3dba5dd1	0.09099925
149	0x3dde3035	0.108490385
150	0x3d4fd9b6	0.050744735
151	0x3d96e133	0.07367172
152	0x3dcfd397	0.101477794
153	0xbc99c400	-0.018770218
154	0xba241980	-0.00062599033
155	0xbd37cd78	-0.044873685
156	0x3d17beea	0.037047304
157	0x3c3c6030	0.011497542
158	0xbdbf03c3	-0.09326889
159	0x3be15430	0.006876491
160	0x3d913e65	0.07091979
161	0x3cff4ab4	0.03116355
162	0x3de6a039	0.11261029
163	0x3ddf38c3	0.10899498
164	0x3db060a9	0.086121865
165	0xbd97aaca	-0.07405622
166	0xbc679698	-0.014135025
167	0xbc994448	-0.018709317
168	0x3d433a12	0.047662802
169	0xbd9f20df	-0.077699415
170	0xbbe46960	-0.0069705695
171	0xbd34033c	-0.043948397
172	0xbcb54740	-0.022128701
173	0xbd626135	-0.055268485
174	0xbd06bfda	-0.032897808
175	0x3d83ddad	0.06438766
176	0xbd917ffe	-0.07104491
177	0x3c1aae70	0.009441003
178	0x3ddbde05	0.10735706
179	0xbd4d75b6	-0.050161086
180	0xbda862ff	-0.08222007
181	0xbd4548dc	-0.048165187
182	0xbd28854c	-0.041142747
183	0xbda5e18c	-0.0809966
184	0xbc68a880	-0.01420033
185	0xbcab3a7c	-0.020901911
186	0xbb098420	-0.0020983294
187	0x3d367706	0.044547103
188	0x3d7d277e	0.06180524
189	0x3d7fd516	0.062459074
190	0xbb677000	-0.003531456
191	0xbca5c9cc	-0.020237826
192	0xbdd298f4	-0.1028308
193	0xbdd166c2	-0.102246776
194	0x3db70109	0.08935744
195	0x3d095dc2	0.03353668
196	0x3d689f6e	0.05679267
197	0x3cd1035c	0.025514297
198	0xbdc668df	-0.09687971
199	0x3d8c2121	0.06842256
200	0x3da31917	0.0796377
201	0x3aaaf4c0	0.0013042912
202	0xbde5e118	-0.11224574
203	0x3ddb319b	0.10702821
204	0xbdc7bfe2	-0.097533956
205	0x3ddc7b0b	0.10765656
206	0xbd83c094	-0.06433216
207	0x3d56ef7a	0.052474476
208	0xbd50e91c	-0.05100356
209	0x3bdc77b0	0.006728135
210	0xbd83a4d0	-0.0642792
211	0x3a11dd80	0.0005564317
212	0x3d134722	0.03595651
213	0x3d21312a	0.039353527
214	0xbd508c6f	-0.050915178
215	0x3ca10084	0.019653566
216	0xbd26b182	-0.04069663
217	0x3d7d4e66	0.061842345
218	0x3bc3a0d0	0.005970098
219	0xbd41df1c	-0.047331914
220	0x3c3cbd18	0.011519693
221	0x3d2e6d42	0.042584665
222	0x3d622052	0.055206604
223	0x3ad905c0	0.00165575
224	0xbafa3900	-0.0019090474
225	0xbd81cd40	-0.063379765
226	0xba25fb00	-0.00063316524
227	0x3dc81583	0.09769728
228	0x3c9fc674	0.01950381
229	0xbdd0f91c	-0.10203764
230	0x3d80b3c9	0.06284291
231	0xbc1dd860	-0.009634107
232	0x3d2f8caa	0.042858757
233	0x3d538292	0.051638193
234	0xbc0fc3f0	-0.0087747425
235	0xbd09f616	-0.03368195
236	0x3ddb95d5	0.107219376
237	0x3d8e1edd	0.069394805
238	0xbc261ef8	-0.010139219
239	0x3ddc1167	0.10745507
240	0xbca9936c	-0.020700179
241	0x3c462518	0.012093805
242	0xbd89d37a	-0.06729789
243	0x3d9553ef	0.072914
244	0xbd96f4db	-0.07370921
245	0x3c9f3a14	0.019436873
246	0x3d1d86de	0.038458697
247	0x3d84a3c7	0.064765505
248	0x3daf6225	0.085636415
249	0xbd427528	-0.04747501
250	0xbcd8da70	-0.026471347
251	0x3d2fdb26	0.042933606
252	0xbdc4f728	-0.09617454
253	0xbd9f4491	-0.0777675
254	0xbde0a7a4	-0.10969475
255	0x3d9e07c9	0.07716329

hyper_w_1.bias f4 [768]
0	0x3da2a3e9	0.0794142
1	0xbc1ba140	-0.009498894
2	0x3de64185	0.112429656
3	0xbc2852c8	-0.010273643
4	0xbdb4b51c	-0.08823606
5	0x3b09a5a0	0.0021003261
6	0xbcd1ed08	-0.02562572
7	0x3dd53d2b	0.104120575
8	0xbd05f52c	-0.032704517
9	0x3d53dc82	0.051723965
10	0x3d718e12	0.05897338
11	0xbd2fbd84	-0.042905346
12	0xbdaf386c	-0.085556835
13	0xbd21e48e	-0.039524607
14	0xbc8f03d8	-0.017457888
15	0x3d85c8c3	0.06532433
16	0xbc85e4f8	-0.016344532
17	0xbdc08308	-0.09399992
18	0x3d90d837	0.0707249
19	0x3c82ecb4	0.01598201
20	0x3d71a06a	0.058990873
21	0x3d4f6df2	0.05064196
22	0xbd2bea52	-0.041971512
23	0x3c0507c8	0.008119531
24	0xbdd295bc	-0.10282466
25	0xbdc6dcfc	-0.09710118
26	0x3dc5220d	0.09625635
27	0xbde2b107	-0.110689215
28	0x3da5fcf7	0.0810489
29	0xbd6806ac	-0.056646988
30	0xbdb7b9d5	-0.089709915
31	0xbd32e4b0	-0.043675125
32	0x3cafb2a4	0.021447487
33	0x3db16d5b	0.08663436
34	0x3db9cf49	0.0907274
35	0xbd16e48a	-0.036839046
36	0xbd3e36a6	-0.046438836
37	0xbda5b2f6	-0.08090775
38	0x3c878b2c	0.016545855
39	0x3d7e979e	0.062156312
40	0xbc58b8a0	-0.013227612
41	0xbc3fdc18	-0.011710189
42	0xbd0f718a	-0.03502039
43	0xbd0686cc	-0.032843396
44	0xbd774d0c	-0.060376212
45	0x3ca7f834	0.020504095
46	0x3de5b84b	0.11216792
47	0x3d273eaa	0.040831245
48	0x3da6d32f	0.08145749
49	0xbdb96c25	-0.0905383
50	0xbdc9a20e	-0.098453626
51	0x3dae4389	0.08508975
52	0x3d966439	0.07343335
53	0x3c3fd9a8	0.011709608
54	0xbb164f20	-0.0022935346
55	0xbd386624	-0.045019284
56	0x3b4d00a0	0.003128089
57	0x3cbb73fc	0.022882454
58	0x3d6671f6	0.056261025
59	0xbd1653e8	-0.036701113
60	0xbdb7fa0a	-0.08983238
61	0xbc7926d0	-0.0152070075
62	0x3c9cc19c	0.019135289
63	0xbda77f0c	-0.08178529
64	0x3d8f8c79	0.07009215
65	0x3d9c16d5	0.07621542
66	0x3da10d7f	0.07863902
67	0xbcf526c8	-0.029925719
68	0x3d0f3e5a	0.034971572
69	0xbde613b8	-0.1123423
70	0xbd44eb5e	-0.048076026
71	0xbb811b60	-0.003940031
72	0x3d7d632a	0.06186215
73	0xbd62b669	-0.05534974
74	0x3d78c452	0.0607341
75	0x3a39a400	0.0007081628
76	0xbdcceb71	-0.100058444
77	0xbda0c46e	-0.07849966
78	0xbd3c1096	-0.045914255
79	0xbdb3fd0d	-0.087885
80	0xbd52afa2	-0.051437028
81	0xbd7f1623	-0.06227697
82	0xbda24c7e	-0.07924746
83	0x3d4f80aa	0.050659813
84	0x3b24c700	0.0025143027
85	0x3c81b6dc	0.015834264
86	0xbd14052a	-0.036137737
87	0x3d6d47c6	0.057929777
88	0x3da3b4f1	0.07993496
89	0x3db4d14d	0.088289835
90	0x3d97ddcd	0.07415352
91	0xbd8e995a	-0.06962843
92	0x3dc84bd5	0.09780089
93	0x38d39000	0.00010088086
94	0xbd86a75c	-0.0657489
95	0x3ca406cc	0.020022772
96	0x3d05ef32	0.032698818
97	0xbd159c76	-0.036526166
98	0x3d934ca7	0.07192355
99	0xbc5f4aa0	-0.013628632
100	0xbc757f80	-0.014984012
101	0x3dd9f755	0.10642878
102	0xbc30e430	-0.010796592
103	0xbc2c7998	-0.010527037
104	0x3dceac23	0.10091426
105	0xbd156cf6	-0.036480866
106	0x3d80f353	0.062964104
107	0x3ddf90c9	0.109162875
108	0xbbb858e0	-0.005625829
109	0x3de035bb	0.10947748
110	0xbcefc684	-0.029269464
111	0xbd6ab9f1	-0.057306234
112	0x3d74856a	0.059697546
113	0x3d52090a	0.05127815
114	0x3d0b7c4e	0.034054093
115	0xbd341b30	-0.04397124
116	0xbd696c26	-0.056987904
117	0xbdcb85a4	-0.09937599
118	0x3d70f83e	0.058830492
119	0xbd7e67d3	-0.062110733
120	0xbdb1deca	-0.08685072
121	0xbd87acf2	-0.066247836
122	0x3c01cfe0	0.007923096
123	0x3d01a392	0.031650133
124	0xbdbc8dff	-0.09206771
125	0x3da13ef1	0.07873333
126	0xbdcf294f	-0.10115301
127	0xbd551748	-0.052024156
128	0xbddb29b8	-0.107013166
129	0x3dd5e843	0.10444691
130	0x3d68a3e2	0.056796916
131	0xbd462dda	-0.04838357
132	0xbd6dfe54	-0.058103874
133	0xbd6a176f	-0.057151254
134	0x3c5018b8	0.012701206
135	0x3ddf7333	0.109106444
136	0x3cf471ac	0.02983936
137	0x3bac4770	0.0052575395
138	0x3de2c6a3	0.11073043
139	0xbdac8f9e	-0.0842583
140	0x3d70421a	0.05865679
141	0xbd06b030	-0.03288287
142	0xbbbb8a40	-0.005723268
143	0xbced90d0	-0.028999716
144	0xbd0b721e	-0.034044378
145	0xbdc42707	-0.095777564
146	0x3c37e4a0	0.011223942
147	0x3d96e1dd	0.07367299
148	0x3dbfd449	0.09366662
149	0xbcefacd0	-0.029257208
150	0xbdbe2b95	-0.09285656
151	0x3cb09274	0.02155421
152	0xbd8d23e6	-0.06891613
153	0x3cdad054	0.026710667
154	0x3d09f856	0.033684097
155	0xbd510e67	-0.051039126
156	0xbd9c889a	-0.07643242
157	0x3d911821	0.0708468
158	0x3c12a898	0.008951329
159	0xbddde01c	-0.10833761
160	0xbd925310	-0.07144749
161	0x3d9c4c73	0.07631769
162	0xbabba7c0	-0.0014316961
163	0xbdad925a	-0.0847518
164	0xbd2c1a1a	-0.04201708
165	0xbd82db8a	-0.0638953
166	0x3bbc78b0	0.0057516918
167	0x3b86f360	0.004118368
168	0x3ae05cc0	0.0017117485
169	0x3d4fe23a	0.050752856
170	0xbddc7f34	-0.107664496
171	0x3ca346b4	0.019931175
172	0xbcd5c6f0	-0.026095837
173	0x3d2b0e2e	0.04176157
174	0xbda2d7b4	-0.07951298
175	0x3d32cdee	0.04365342
176	0xbd5efd9d	-0.054441083
177	0x3d78f8f2	0.060784288
178	0x3de7ce87	0.11318689
179	0x3d596dbe	0.053083174
180	0xbd0f8376	-0.03503748
181	0x3c7b6ab8	0.015345268
182	0xbc97fc9c	-0.01855307
183	0xbd22d560	-0.03975427
184	0x3d07e35a	0.033175804
185	0x3dd57e8b	0.10424527
186	0x3d123e6a	0.035704054
187	0x3cd84664	0.026400752
188	0xbd2aadec	-0.04166977
189	0xbd559284	-0.05214168
190	0xbdd2b14e	-0.102877244
191	0x3c278a60	0.010225862
192	0x3d56c6fe	0.052435867
193	0x3dc56d8d	0.09640036
194	0xbdbeb078	-0.093110025
195	0x3d59533a	0.053057887
196	0xbd87c332	-0.066290274
197	0xbdd0d18b	-0.10196217
198	0x3d8aaf45	0.06771711
199	0x3d984add	0.07436154
200	0x3d8c7c49	0.06859643
201	0x3dd8f43f	0.10593461
202	0xbd5e9318	-0.0543395
203	0xbdd3e6c7	-0.10346752
204	0x3d604c16	0.05476006
205	0xbd1e054c	-0.03857927
206	0x3bb17a90	0.005416222
207	0xbd807de6	-0.06274013
208	0x3ca35ed4	0.019942679
209	0xbc8abd9c	-0.016936116
210	0x3d05245e	0.032505386
211	0xbdb27c91	-0.087151654
212	0x3dcb88c7	0.099381976
213	0xbcee73e8	-0.029108003
214	0x3dbc4145	0.09192137
215	0xbdb639d4	-0.088977486
216	0xbcb95594	-0.022623815
217	0xbdbbd3cb	-0.09171256
218	0x3dca2c3f	0.098717205
219	0xba052600	-0.000507921
220	0x3db0f6e3	0.0864084
221	0x3daccdfb	0.08437725
222	0xbd9a196c	-0.0752438
223	0x3db3325d	0.087498404
224	0xbde5ad30	-0.112146735
225	0xbd31de74	-0.04342504
226	0x3dd4a629	0.10383255
227	0xbccb390c	-0.024807476
228	0x3c71e968	0.014765121
229	0xbbb12ab0	-0.0054067
230	0xbcd76554	-0.026293434
231	0xbd8f2e86	-0.069912955
232	0xbc4f49e8	-0.012651898
233	0x3d6a4616	0.057195745
234	0xbc58cb88	-0.013232119
235	0xbc8eaa48	-0.01741518
236	0x3dc36717	0.09541147
237	0x3c0ab030	0.008464858
238	0xbd771b78	-0.06032893
239	0xbc3b2550	-0.01142247
240	0xbde2782c	-0.11058077
241	0xbdd7cc4e	-0.10537015
242	0xbd89ca1c	-0.067280024
243	0x3da1cb2f	0.07900082
244	0xbce0ed80	-0.027456999
245	0xbd8a637c	-0.067572564
246	0x3da02681	0.07819844
247	0xbde37af4	-0.11107436
248	0xbdbc2da2	-0.09188391
249	0xbd85e028	-0.06536895
250	0x3b055360	0.0020343885
251	0x3ceeedc4	0.02916611
252	0x3ce65e34	0.028121091
253	0xbc019ac8	-0.007910438
254	0x3d230cca	0.03980712
255	0x3bd32820	0.0064439923

hyper_b_1.weight f4 [128, 78]
0	0xbdc47bb2	-0.095939055
1	0x3d901505	0.07035259
2	0x3c99d85c	0.018779926
3	0x3c2a90a0	0.010410458
4	0xbd1f2adc	-0.038859233
5	0xbd4e42dc	-0.05035673
6	0x3b5e2c20	0.0033900812
7	0xbdb2c366	-0.087286755
8	0x3c1e0b50	0.009646252
9	0xbd98e4ec	-0.074655384
10	0x3dc8d7f9	0.098068185
11	0x3db89d9b	0.09014436
12	0x3dc9996f	0.09843718
13	0xbcd51948	-0.026013032
14	0xbc411090	-0.011783734
15	0x3cf5e58c	0.030016683
16	0x3d8facfb	0.07015415
17	0xbc93c2b8	-0.018037185
18	0x3d08715a	0.033311225
19	0xbdd366fc	-0.10322377
20	0x3d9faead	0.07796989
21	0x3c84754c	0.016169213
22	0xbcbdc9d0	-0.02316752
23	0xbc98dbd0	-0.018659502
24	0xbd6cd534	-0.057820514
25	0x3ba142b0	0.00492128
26	0xbd0303c6	-0.03198602
27	0xbcc9d8b4	-0.024639465
28	0xbdd6bb25	-0.10484914
29	0xbdbc334b	-0.09189471
30	0xbd897927	-0.06712561
31	0x3d249942	0.04018522
32	0x3dcd20a9	0.10015995
33	0xbaafa7c0	-0.0013401434
34	0xbdafb9b3	-0.08580341
35	0x3d9105c5	0.070811786
36	0x3dd0cceb	0.10195335
37	0xbc29d838	-0.010366492
38	0xbc789e60	-0.015174478
39	0x3d57a1d6	0.052644573
40	0x3dccf7b5	0.10008184
41	0xbdb6ec3d	-0.089317776
42	0x3dc35317	0.095373325
43	0x3dc76ffd	0.09738157
44	0xbdca646c	-0.09882435
45	0x3d193f3a	0.037413813
46	0x3d6dab3a	0.058024622
47	0x3d97139d	0.07376788
48	0x3d2daf2a	0.042403378
49	0xbcdaa7f4	-0.026691414
50	0xbdb2c092	-0.08728136
51	0x3d806a8b	0.062703215
52	0xbdd2de5d	-0.10296319
53	0x3dc583a9	0.09644253
54	0x3afbbfc0	0.0019206926
55	0xbd753692	-0.059866495
56	0xbde4839a	-0.111579135
57	0xbda64824	-0.081192285
58	0x3de68755	0.11256281
59	0x3d3994ca	0.045307912
60	0x3dbaab83	0.091147445
61	0x3de0108d	0.10940657
62	0x3da93da1	0.08263708
63	0x3d8b806b	0.06811603
64	0xbd9026f2	-0.07038678
65	0xbddde16c	-0.108340114
66	0xbd82d7f2	-0.063888445
67	0xbd81196b	-0.06303676
68	0xbdc5e29d	-0.09662364
69	0xbdacde54	-0.08440843
70	0x3dd29d09	0.10283858
71	0xbdce4b98	-0.10073012
72	0xbdb98514	-0.09058586
73	0xbd9b769e	-0.07590984
74	0x3c1f8ee8	0.009738661
75	0xbd872b1f	-0.066000216
76	0x3cdf11c4	0.027230151
77	0x3d0991ba	0.03358624
78	0x3d1a88d2	0.03772814
79	0x3d48312a	0.04887501
80	0x3c6284c8	0.013825603
81	0xbd246142	-0.040131815
82	0x3de5fce9	0.112298794
83	0x3c91227c	0.017716639
84	0x3d8448c1	0.06459189
85	0x3c5586d8	0.013032638
86	0x3c824974	0.015904166
87	0x3c3daf48	0.011577435
88	0x3ce914e4	0.028452344
89	0x3d481546	0.048848413
90	0x3c162050	0.009162977
91	0xbdb77e10	-0.089595914
92	0x3b789320	0.003792949
93	0xbdd7f7fe	-0.10545348
94	0x3dc45c65	0.09587935
95	0x3c87ca0c	0.016575836
96	0xbddd3f40	-0.108030796
97	0x3bfd7e30	0.00773599
98	0xbdb3da66	-0.087818906
99	0x3d81f6e7	0.06345921
100	0xbdd2a70f	-0.1028577
101	0xbbab3620	-0.005224958
102	0xbd5b9a1b	-0.053613763
103	0xbdde58b8	-0.108567655
104	0x3d20844e	0.039188676
105	0x3d935f75	0.07195941
106	0xbdd58aca	-0.104268625
107	0xbd91092e	-0.07081829
108	0x3d2183d2	0.039432354
109	0x3db0a013	0.08624282
110	0xbd8872c4	-0.06662515
111	0xbd30ef70	-0.043197095
112	0x3d03091a	0.0319911
113	0xbd8975c6	-0.067119166
114	0xbd9197ea	-0.071090534
115	0xbcc68a9c	-0.024236016
116	0xbcbb5478	-0.022867426
117	0x3dd84c6b	0.105614506
118	0x3dce1e11	0.100643285
119	0x3c01c030	0.007919356
120	0x3b923b40	0.0044626296
121	0xbdcd0f47	-0.100126795
122	0xbdb04854	-0.086075455
123	0x3d6c6c96	0.057720743
124	0x3d7c87de	0.06165301
125	0x3ce0eaa4	0.027455635
126	0x3d79afea	0.06095878
127	0x3dcb265f	0.09919428
128	0x3d8fa819	0.07014484
129	0x3dd48c47	0.10378318
130	0xbde05718	-0.10954112
131	0xbcbb1864	-0.022838779
132	0x3c5b8428	0.013398208
133	0x3ce97b14	0.028501071
134	0xbdad47ac	-0.08460936
135	0x3d157a96	0.03649386
136	0x3de3c1ab	0.111209236
137	0xbd445a06	-0.047937416
138	0xbc3053f8	-0.010762207
139	0xbdb0f508	-0.08640486
140	0x3c486608	0.012231357
141	0xbd296094	-0.04135187
142	0x3d871df9	0.06597514
143	0xbd321800	-0.04347992
144	0x3d6de102	0.058075912
145	0xbd0436c0	-0.032278776
146	0xbd17dbc4	-0.03707482
147	0x3d942737	0.07234042
148	0x3c1c7368	0.009548999
149	0x3dbe4435	0.09290353
150	0x3cb1ff84	0.021728285
151	0xbd32348c	-0.043507144
152	0x3d3c585e	0.04598271
153	0x3d835985	0.06413559
154	0x3dbe5c1d	0.09294913
155	0x3db5c825	0.08876065
156	0x3b510f60	0.0031900033
157	0x3c89bf54	0.016814865
158	0xbdcb8fb5	-0.09939519
159	0xbda1144a	-0.07865198
160	0xbdc31887	-0.095261626
161	0xbd4e68e0	-0.050392985
162	0xbcf40f04	-0.029792316
163	0xbd207ee2	-0.039183505
164	0xbd106f54	-0.03526242
165	0x3da79461	0.08182598
166	0xbd8774af	-0.066140525
167	0xbb98d230	-0.004663728
168	0x3dcf0ef7	0.10110276
169	0x3b8f9140	0.004381329
170	0x3dcc0e1f	0.09963631
171	0xbde5cb2b	-0.11220392
172	0x3d813e01	0.063106544
173	0xba8373c0	-0.0010029003
174	0xbdba127a	-0.090855554
175	0xbd91446c	-0.070931286
176	0x3d8c5771	0.068526156
177	0x3db66457	0.08905857
178	0xbc50c7c8	-0.012742944
179	0xbd8010b0	-0.06253183
180	0x3ddd4499	0.108040996
181	0x3d4a3bbe	0.04937338
182	0x3d007bbe	0.03136801
183	0x3d78801a	0.060669042
184	0xbd88dae7	-0.06682377
185	0xbde44662	-0.11146237
186	0xbdd25e46	-0.102718875
187	0x3da5acb1	0.08089579
188	0x3b079c80	0.0020692647
189	0x3d60bffe	0.054870598
190	0x3dc54e99	0.09634132
191	0xbca933f0	-0.020654649
192	0x3caba1f4	0.020951249
193	0x3d5d88ce	0.054085545
194	0xbd861781	-0.06547452
195	0xbda14f6e	-0.07876478
196	0x3d63739e	0.055530183
197	0xbdb84fda	-0.089996055
198	0xbd6bfd56	-0.057614647
199	0x3d6d482e	0.057930164
200	0x3dd9c3d1	0.10633052
201	0xbd37cc8a	-0.044872798
202	0x3d8263e1	0.06366707
203	0x3d9d16ad	0.07670341
204	0xbd92560a	-0.07145317
205	0x3d3bf02e	0.04588335
206	0xbdb87e26	-0.09008436
207	0xbde166c0	-0.11005926
208	0xbd25b46e	-0.040455274
209	0xbd7ef4ef	-0.062245306
210	0xbbde7ae0	-0.00678955
211	0x3da022c3	0.0781913
212	0xbdc3672c	-0.09541163
213	0x3d8d351d	0.06894896
214	0xbb7b44e0	-0.0038340613
215	0x3d9063f9	0.07050318
216	0xbd3f693e	-0.046731226
217	0x3d9bd1bd	0.07608364
218	0x3ad4bbc0	0.001623027
219	0xbd882427	-0.066475205
220	0xbd186e92	-0.037214823
221	0x3b6a8d20	0.0035789683
222	0x3d8a5a83	0.06755545
223	0x3d708892	0.058723994
224	0x3de0869d	0.109631754
225	0x3d31a79a	0.043372728
226	0x3dd74575	0.10511295
227	0x3da0a5f7	0.07844155
228	0x3d042486	0.032261394
229	0x3c87898c	0.01654508
230	0x3d02fa26	0.03197684
231	0x3bf5ee20	0.0075051934
232	0x3da15099	0.07876701
233	0xbd263fd8	-0.04058823
234	0x3d9a3967	0.0753048
235	0x3d3dfc8e	0.046383433
236	0x3c08ccc0	0.008349597
237	0x3cc4b084	0.02400995
238	0xbbc3d010	-0.0059757307
239	0xbaaa3780	-0.0012986511
240	0xbd8d2dae	-0.06893478
241	0x3de33dc3	0.110957645
242	0xbd77775e	-0.06041657
243	0xbbcd7660	-0.006270215
244	0xbd8eb6f0	-0.06968486
245	0xbde544b8	-0.11194748
246	0xbdd33e0e	-0.1031457
247	0x3bcf33e0	0.0063233227
248	0x3d788142	0.060670145
249	0xbd14ddbe	-0.036344282
250	0xbda76d11	-0.081751
251	0x3d5ee9e2	0.054422267
252	0x3daa85f7	0.08326333
253	0xbd8c8a34	-0.06862298
254	0x3d369caa	0.044583
255	0x3db97075	0.090546526

hyper_b_1.bias f4 [128]
0	0x3cb830b4	0.022484161
1	0xbb8a5160	-0.0042211264
2	0x3d7b8982	0.061410435
3	0xbd21e2b6	-0.03952285
4	0xbcb1d144	-0.021706231
5	0xbd0ca79c	-0.034339532
6	0xbd1386c2	-0.036017187
7	0xbd903001	-0.07040406
8	0x3d3d558e	0.04622417
9	0x3db4c257	0.0882613
10	0xbd3e9642	-0.046530016
11	0xbd4fae1c	-0.050703153
12	0xbd0a9b00	-0.033839226
13	0xbd292214	-0.041292265
14	0xbde0bc0b	-0.10973366
15	0x3d13ceca	0.03608588
16	0xbd2f3b10	-0.042780936
17	0x3d6100b2	0.054932304
18	0xbdbf7190	-0.09347832
19	0xbda8a282	-0.08234121
20	0x3d79ceca	0.060988225
21	0x3c754288	0.014969476
22	0xbd6914fd	-0.05690478
23	0xbbee8aa0	-0.007279709
24	0xbde6486a	-0.11244281
25	0xbd86db1e	-0.06584762
26	0x3ddf38eb	0.10899528
27	0xbd9f2764	-0.07771185
28	0xbd426368	-0.047458082
29	0xbde327a4	-0.11091545
30	0x3d06e4ea	0.032933153
31	0xbc0d9d68	-0.008643486
32	0xbcd340dc	-0.025787763
33	0x3de08697	0.10963171
34	0xbd2dabf2	-0.042400308
35	0x3dc9ea09	0.09859092
36	0xbd8c51e2	-0.068515554
37	0xbc8a1f58	-0.016860649
38	0x39065400	0.00012810528
39	0xbd8583a6	-0.065192506
40	0xbc668f10	-0.014072195
41	0xbd41bd6e	-0.047299795
42	0x3d805195	0.062655605
43	0x3de3758d	0.111064054
44	0xbd716f6c	-0.05894415
45	0xbc367ba8	-0.01113788
46	0x3d848a9d	0.06471751
47	0x3c152118	0.009102128
48	0x3ca2b60c	0.019862197
49	0xbcdccde0	-0.026953638
50	0xbc1145a0	-0.008866698
51	0x3c4c7448	0.0124788955
52	0xbddab880	-0.10679722
53	0xbcea0f00	-0.028571606
54	0x3c89ecd4	0.016836561
55	0xbcf0a568	-0.029375747
56	0xbd7ddf0f	-0.061980303
57	0xbd1ae352	-0.037814446
58	0xbd9a6410	-0.07538617
59	0x3d0cbe3e	0.034361117
60	0xbc914538	-0.017733201
61	0x3c9c5754	0.01908461
62	0xbd272400	-0.040805817
63	0xbb6aefa0	-0.0035848394
64	0xbddfe808	-0.10932928
65	0x3cca9174	0.02472756
66	0xbd957a6a	-0.07298739
67	0xbdc36dfa	-0.09542461
68	0x3c6e7fd8	0.0145568475
69	0x3ce0319c	0.027367406
70	0xbd5ca83d	-0.053871382
71	0x3d847037	0.06466716
72	0x3d90c0bf	0.070680134
73	0xbc13ed00	-0.009028673
74	0x3cbdb81c	0.02315908
75	0x3c9a4e0c	0.018836044
76	0x3cb1367c	0.021632425
77	0xbbb93530	-0.0056520924
78	0x3dcc2e83	0.09969809
79	0x3bdb8bc0	0.006700009
80	0x3d4f122e	0.050554447
81	0xbcb29024	-0.021797247
82	0x3b7961a0	0.0038052574
83	0x3d66c5d2	0.056341
84	0x3d48eeda	0.04905591
85	0x3dc04e13	0.093898915
86	0x3da5c815	0.08094803
87	0xbbd8c6a0	-0.006615475
88	0x3d17dc5a	0.037075378
89	0x3dc9e201	0.0985756
90	0xbd2d9d0e	-0.042386107
91	0xbd95ee38	-0.07320827
92	0x3db03dad	0.08605514
93	0x3bce6810	0.0062990263
94	0xbd29e378	-0.041476697
95	0xbd167416	-0.036731802
96	0x3d8567bf	0.065139286
97	0xbdc66e8a	-0.096890524
98	0xbcb8ccc4	-0.022558577
99	0x3ca0ffec	0.019653283
100	0xbcdb3ef8	-0.026763424
101	0xbd8dafc4	-0.0691829
102	0x3c80d7dc	0.01572793
103	0x3d048766	0.03235569
104	0xbcc41554	-0.023935951
105	0x3d82a593	0.06379237
106	0xbcede058	-0.02903764
107	0x3d04b902	0.032403
108	0x3d34b99a	0.044122316
109	0xbc3361b0	-0.0109485835
110	0x3dc6f2fd	0.09714315
111	0xbd8310f1	-0.06399716
112	0x3de42e8d	0.11141691
113	0x3d836faf	0.06417786
114	0xbd23a3a2	-0.039950974
115	0x3d3ab022	0.04557813
116	0xbca227dc	-0.019794397
117	0xbd877c9a	-0.06615563
118	0xbcaf6730	-0.021411508
119	0xbd3d13c8	-0.046161443
120	0x3d1fb32e	0.03898924
121	0xbdbd5099	-0.092438884
122	0x3dd84035	0.105591215
123	0x3da185bb	0.07886835
124	0xbd63b875	-0.055595834
125	0x3da87ca1	0.08226896
126	0xbcb15b08	-0.021649852
127	0xbc59ef50	-0.013301685

hyper_w_final.weight f4 [128, 78]
0	0xbcbd8678	-0.023135409
1	0xbd662e05	-0.05619623
2	0x3c111e10	0.008857265
3	0xbdce8bfa	-0.10085292
4	0x3d81b919	0.06334133
5	0x3dab737b	0.083716355
6	0x3dae40f3	0.08508482
7	0xbd7f30c3	-0.062302362
8	0x3c2edca0	0.010672718
9	0xbdcaef6e	-0.09908949
10	0xbd2df924	-0.042473927
11	0x3ccf5d64	0.025313087
12	0xbca0a5f8	-0.01961039
13	0xbb7de500	-0.003874123
14	0x3d2a8492	0.041630335
15	0xbd99ccbf	-0.07509755
16	0x3c3dfd30	0.011596009
17	0x3d8cb00d	0.068695165
18	0x3d254bca	0.04035548
19	0xb8c02c00	-9.163469e-05
20	0x3d83b337	0.06430667
21	0x3a0de280	0.0005412474
22	0x3d8b4155	0.067995705
23	0x3ddad603	0.10685351
24	0xbdc3c226	-0.09558515
25	0xbd92a687	-0.07160669
26	0xbd861433	-0.065468214
27	0xbca8d9ec	-0.020611726
28	0xbda124d0	-0.078683496
29	0xbda0bf3e	-0.078489766
30	0x3d9c80c5	0.07641748
31	0xbdc70b1d	-0.097189166
32	0x3d259b9a	0.040431596
33	0x3d6b0f12	0.05738742
34	0x3cf47bdc	0.029844217
35	0xbda8c4bf	-0.08240651
36	0x3dc3e6af	0.09565484
37	0x3d178b92	0.03699834
38	0xbd39f120	-0.04539597
39	0xbd8b7a6e	-0.06810461
40	0x3d3d50ba	0.046219565
41	0x3dca7519	0.09885616
42	0x3cf7dc2c	0.030256353
43	0x3d918f2b	0.07107385
44	0xbd908a4c	-0.07057628
45	0xbda45631	-0.08024252
46	0xbda51d8a	-0.08062275
47	0xbd4e2db4	-0.050336555
48	0x3dd3e3ff	0.10346221
49	0xbd287048	-0.041122705
50	0x3d19b79a	0.03752861
51	0xbdaf25da	-0.085521415
52	0xbbc52600	-0.006016493
53	0xbd8f6619	-0.070018955
54	0x3d774d5e	0.060376517
55	0xba63f200	-0.00086954236
56	0xbdc7ecd9	-0.09761972
57	0x3d6fcbc6	0.058543943
58	0xbd8a696c	-0.06758389
59	0xbdaade3a	-0.083431676
60	0xbc46ed58	-0.012141548
61	0x3dd472b1	0.10373438
62	0x3ceaf2a4	0.028680153
63	0xbc8f4d0c	-0.017492794
64	0x3a3d7b80	0.0007228181
65	0x3b2720e0	0.0025501773
66	0x3cfbc224	0.030732222
67	0xbc40bf58	-0.01176437
68	0xbc2489b8	-0.0100426
69	0x3d064726	0.032782696
70	0x3d553dde	0.052060954
71	0x3d28ec56	0.041241013
72	0x3de36e41	0.11105014
73	0x3cceeed4	0.025260366
74	0x3de68fcb	0.11257895
75	0x3d586ade	0.05283629
76	0xbc793370	-0.015210018
77	0xbd1f6262	-0.038912185
78	0xbb28e560	-0.0025771484
79	0xbce1d5ec	-0.027567826
80	0x3cba9bdc	0.022779398
81	0x3dbdc23b	0.09265562
82	0xbc800c5c	-0.015630893
83	0xbd217196	-0.039414965
84	0xbd183b4e	-0.037165932
85	0xbd37caba	-0.04487107
86	0x3d68bbd2	0.056819744
87	0x3da91b8d	0.08257208
88	0xbd8dcd5c	-0.06923935
89	0xbd6e5f9a	-0.05819664
90	0xbc9caf98	-0.019126698
91	0xbdbb95c4	-0.09159425
92	0xbddb52b4	-0.10709134
93	0xbd0d2ffc	-0.03446959
94	0x3d67f24a	0.05662755
95	0x3db3cde5	0.08779506
96	0x3d8d9723	0.06913593
97	0x3c294948	0.010332413
98	0xbc885f70	-0.01664707
99	0xbd099156	-0.03358587
100	0x3d6db4a6	0.058033608
101	0xbc8db904	-0.017300136
102	0x3d38e596	0.045140825
103	0x3ccadf7c	0.024764769
104	0xbd51a6a7	-0.051184323
105	0x3d68ac22	0.056804784
106	0x3d077c6a	0.033077635
107	0xbd8886e8	-0.06666356
108	0xbd9401d8	-0.07226914
109	0x3d8bc757	0.068251304
110	0xbdaf62f2	-0.08563794
111	0x3b602be0	0.003420584
112	0x3da73ac5	0.08165506
113	0x3d89e4f9	0.06733126
114	0xbdc31ae6	-0.09526615
115	0x3c1080c0	0.008819759
116	0x3dd4b2d5	0.10385672
117	0x3da5db37	0.080984525
118	0x3de3f69b	0.11131021
119	0xbcf06430	-0.029344648
120	0x3d50ac4e	0.050945573
121	0xbd746444	-0.059665933
122	0xbdd85ec6	-0.105649516
123	0xbdce600a	-0.10076912
124	0xbdd9d695	-0.106366314
125	0xbd8a60c0	-0.06756735
126	0xbddd54f6	-0.10807221
127	0x3ddb7095	0.10714833
128	0xbdbe2cf8	-0.09285921
129	0x3cac5fa4	0.021041699
130	0xbc8fa4e0	-0.017534673
131	0x3cd203bc	0.025636546
132	0x3c5e2f18	0.013561033
133	0x3cc54dfc	0.024085037
134	0x3d32075e	0.043464057
135	0xbcbe6e20	-0.023245871
136	0x3ce40d8c	0.02783849
137	0xbdd5aeae	-0.10433708
138	0xbd1ad3e6	-0.03779974
139	0xbd455100	-0.04817295
140	0x3d580642	0.052740343
141	0x3dbc3585	0.091898955
142	0xbbc9e680	-0.006161511
143	0xbd9e601e	-0.07733177
144	0xbdd4b5ba	-0.10386224
145	0xbcd53cdc	-0.026029997
146	0x3d1f2b6e	0.038859777
147	0x3da99055	0.08279482
148	0x3ddfa949	0.109209605
149	0x3bd94d70	0.0066315457
150	0x3db62227	0.08893233
151	0xbc343ce8	-0.011000849
152	0xbd8c6421	-0.068550356
153	0xbdd625ad	-0.10456405
154	0xbca355ec	-0.019938432
155	0x3ddd3b0f	0.1080228
156	0xbd9b1156	-0.07571666
157	0xbdb7de56	-0.08977954
158	0x3bb14910	0.005410321
159	0x3cb2abd4	0.02181045
160	0xbdc250b6	-0.09488051
161	0x3db2b74b	0.087263666
162	0x3d80d5a5	0.062907495
163	0x3d8341a7	0.064090066
164	0x3ca78b9c	0.020452313
165	0xbdbfcfd2	-0.093658105
166	0x3d71afaa	0.059005417
167	0x3d1428fa	0.03617189
168	0x3cda1364	0.026620574
169	0x3dcec507	0.10096174
170	0xbd8cdef6	-0.06878464
171	0x3d9530b1	0.07284678
172	0x3ddb2d3b	0.107019864
173	0xbd84d222	-0.06485392
174	0xb8f05400	-0.00011459738
175	0x3cee75ec	0.029108964
176	0x3dbe1fe3	0.09283426
177	0xbd71e259	-0.059053753
178	0xbdc0ebcb	-0.09419974
179	0xbd9615d4	-0.07328382
180	0x3c973044	0.018455632
181	0xbce7f6dc	-0.028315954
182	0x3c365a50	0.011129931
183	0xbddef278	-0.10886091
184	0x3c0641e0	0.008194417
185	0x3de61907	0.11235242
186	0x3d16a822	0.036781438
187	0x3c984cf4	0.018591382
188	0xbdb55be8	-0.0885542
189	0x3d836a05	0.06416706
190	0xbd4256f4	-0.047446206
191	0xbde6eec8	-0.11276013
192	0xbdde3eed	-0.10851846
193	0xbcb6a6e0	-0.02229637
194	0x3dca6a57	0.09883564
195	0xbc4819c0	-0.0122131705
196	0xbddf0fc1	-0.10891677
197	0x3d9e8e49	0.077419825
198	0xbd925f74	-0.071471125
199	0xbdde5a69	-0.10857088
200	0x3de7a1b5	0.1131014
201	0xbd2514a4	-0.040302888
202	0x3da13885	0.07872108
203	0x3d3cdda6	0.046109818
204	0xbdddc8e4	-0.108293325
205	0x3dd9c4d1	0.10633243
206	0x3ad8c000	0.0016536713
207	0x3ddea5c7	0.10871463
208	0xbdcfd592	-0.10148157
209	0x3ddcf281	0.107884414
210	0x3da1aaed	0.0789393
211	0xbd8685e5	-0.06568507
212	0xbd656561	-0.056004886
213	0xbd64bc8b	-0.05584387
214	0xbaa367c0	-0.0012466833
215	0xbd954f75	-0.07290546
216	0x3d54d59a	0.05196152
217	0xbd2c2b3e	-0.042033426
218	0xbd8ef426	-0.06980161
219	0x3d79cd06	0.06098654
220	0x3ca2931c	0.019845538
221	0x3de7c31d	0.11316512
222	0xbccf51bc	-0.025307529
223	0xbca08d34	-0.01959858
224	0xbdc568f8	-0.09639162
225	0xbddd96ee	-0.10819803
226	0xbdd14494	-0.10218158
227	0x3ce95934	0.028484918
228	0xbc383c50	-0.011244848
229	0x3dcab391	0.09897531
230	0x3d764922	0.06012834
231	0x3d6c0436	0.057621203
232	0xbd4945d0	-0.049138844
233	0x3dda6805	0.106643714
234	0x3d998ce9	0.074975796
235	0x3b8709c0	0.0041210353
236	0xbd934c2a	-0.071922615
237	0x3d803799	0.062606044
238	0xbce89750	-0.028392464
239	0x3dd605b5	0.10450307
240	0xbd1be1f6	-0.03805729
241	0xbc177128	-0.009243287
242	0xbd9f9522	-0.07792117
243	0x3dc90cd5	0.09816901
244	0x3a70d200	0.0009186566
245	0x3b81cfc0	0.0039615333
246	0xbbdac210	-0.006675966
247	0x3b8688b0	0.00410565
248	0x3caf1f24	0.021377154
249	0xbdcc9a1c	-0.099903315
250	0x3b9170c0	0.0044384897
251	0xbda9e03c	-0.082947224
252	0xbde33cd4	-0.110955864
253	0xbd27b0da	-0.040940143
254	0x3cef8efc	0.029242985
255	0xbdd2de21	-0.10296274

hyper_w_final.bias f4 [128]
0	0xbb5ccc60	-0.0033691153
1	0xbdb337ea	-0.08750899
2	0x3ddc6573	0.107615374
3	0xbc690988	-0.014223464
4	0xbd02f4a4	-0.03197159
5	0xbd456626	-0.04819312
6	0x3dc8a8cd	0.09797821
7	0x3d9e680d	0.0773469
8	0x3dca1a55	0.09868304
9	0xbd8a33fe	-0.06748198
10	0xbd87ff2d	-0.06640468
11	0x3d889239	0.06668515
12	0xbb9e75a0	-0.0048357993
13	0x3dd71dfd	0.10503767
14	0x3d68eefe	0.056868546
15	0xbc739d18	-0.014868997
16	0x3d112b52	0.035441704
17	0xbd4bf7ae	-0.049796753
18	0xbccedc10	-0.025251418
19	0xbd78cb14	-0.060740545
20	0x3d8ea1c9	0.06964452
21	0x3ca2d68c	0.019877695
22	0xbd8f6353	-0.070013665
23	0x3d3b967a	0.045797803
24	0xbd62d86c	-0.055382177
25	0x3c35eb20	0.011103421
26	0xbdb3d74c	-0.08781299
27	0xbc0bf2a8	-0.0085417405
28	0x3d45e2de	0.04831206
29	0xbd7f988c	-0.06240134
30	0xbd311574	-0.04323335
31	0xbd9b2178	-0.07574743
32	0xbd5fc556	-0.054631554
33	0xbd3cedd6	-0.046125256
34	0x3cb299c4	0.021801837
35	0x3d89e299	0.06732673
36	0xbd820a2b	-0.06349596
37	0xbbad7460	-0.005293414
38	0xbc9b5c1c	-0.01896482
39	0xbc875b04	-0.016522892
40	0x3c993094	0.018699922
41	0xbdd12896	-0.10212819
42	0x3d0b92de	0.03407561
43	0xbd841b3e	-0.064505085
44	0xbce810a8	-0.028328255
45	0x3d8594c3	0.06522515
46	0x3d17ad56	0.03703054
47	0x3c96635c	0.018357925
48	0xbd9a51b8	-0.07535118
49	0xbdb34e24	-0.087551385
50	0x3d85dddb	0.06536456
51	0x3d03e9ca	0.03220538
52	0xbdd3e0f4	-0.10345641
53	0xbda220e9	-0.07916433
54	0x3bc4ae90	0.006002255
55	0x3d6ed91e	0.058312528
56	0x3d990f07	0.07473569
57	0x3d19b052	0.037521668
58	0x3d258046	0.040405534
59	0x3d1deb2e	0.038554363
60	0xbd5c49a7	-0.053781178
61	0xbb7936e0	-0.0038027093
62	0xbdd7257b	-0.10505196
63	0xbc0135c8	-0.007886358
64	0x3ce6640c	0.028123878
65	0x3de09a27	0.10966902
66	0xbdbe31a4	-0.09286812
67	0x3d76c136	0.060242854
68	0x3c3b41b8	0.011429243
69	0xbc46d790	-0.012136355
70	0x3d5ce49a	0.05392895
71	0xbdb17dcf	-0.08666574
72	0xbd9748cc	-0.07386932
73	0xbcaf4320	-0.021394312
74	0x3b939300	0.0045036077
75	0x3d813b0f	0.06310093
76	0x3d8e430f	0.06946384
77	0xbda80534	-0.082041174
78	0x3cd469f4	0.025929429
79	0x3cdc4314	0.026887454
80	0xbd4decb6	-0.050274573
81	0x3d28282e	0.041053943
82	0xbd9b344f	-0.075783364
83	0xbd60007f	-0.054687973
84	0x3daa1dd7	0.08306473
85	0xbd960527	-0.073252015
86	0x3dd03911	0.101671346
87	0x3d7f582e	0.062339954
88	0xbd212d94	-0.039350107
89	0x3d6a665a	0.057226516
90	0xbd560bf0	-0.05225748
91	0x3d16a20a	0.036775626
92	0xbdd9c97a	-0.10634132
93	0x3b9a9cb0	0.0047183856
94	0xbddaca8f	-0.10683166
95	0x3d615032	0.05500812
96	0x3ba543e0	0.0050434917
97	0x3d86ed63	0.06588247
98	0xbd9a9b89	-0.07549197
99	0x3da991bb	0.08279749
100	0x3b18e700	0.0023331046
101	0xbd9d701e	-0.076874
102	0x3dc60fa7	0.09670954
103	0xbd777664	-0.06041564
104	0xbcb20c34	-0.021734335
105	0x3d9ffae9	0.07811529
106	0x3de3eae1	0.11128784
107	0xbd17bd08	-0.03704551
108	0x3da63d61	0.08117176
109	0xbdb87cf6	-0.090082094
110	0x3dc0ecb9	0.09420151
111	0xbd814e22	-0.06313731
112	0x3cf683fc	0.030092232
113	0xbd28486c	-0.041084692
114	0x3d8d6ee5	0.06905917
115	0x3da80743	0.0820451
116	0xbc7e9d48	-0.015540428
117	0xbdad96c6	-0.084760234
118	0xbd3f14e6	-0.04665079
119	0x3d8e17bd	0.069381215
120	0x3d187112	0.037217207
121	0xbdae0b60	-0.08498263
122	0xbd2da298	-0.04239139
123	0x3dd1cc87	0.102440886
124	0x3b1aa000	0.0023593903
125	0x3d103866	0.035210036
126	0xbd1b0698	-0.037848085
127	0x3cd15d74	0.025557257

hyper_b_final.weight f4 [1, 78]
0	0x3d966373	0.07343187
1	0x3992cd00	0.00028000027
2	0x3c82564c	0.01591029
3	0x3dd1e61d	0.10248969
4	0x3d984de7	0.07436734
5	0xbda9b408	-0.08286291
6	0xbdc78f4b	-0.09744128
7	0x3ddd2727	0.10798483
8	0x3c91d50c	0.017801784
9	0x3db9e22b	0.09076341
10	0xbdd282f2	-0.10278882
11	0xbd8bfb6a	-0.06835063
12	0x3c9e2dec	0.019309007
13	0xbd89f492	-0.06736101
14	0x3de631f3	0.11239996
15	0x3ba7bb90	0.0051187947
16	0xbd81f3dd	-0.06345341
17	0xbcdd6ad0	-0.027028471
18	0xbdd5855a	-0.104258254
19	0xbdde13c4	-0.10843614
20	0x3d5d4d3a	0.054028727
21	0xbbbeb2d0	-0.005819656
22	0x3cf6989c	0.030102067
23	0xbb29e540	-0.0025923997
24	0x3d2a5e8e	0.04159408
25	0x3d9eac01	0.07747651
26	0xbd9dd650	-0.077068925
27	0xbd467816	-0.048454367
28	0xbd0cf0ba	-0.034409262
29	0x3d061df6	0.032743417
30	0x3cdefa14	0.027218856
31	0x3b8b08e0	0.0042430013
32	0x3dba2d41	0.09090663
33	0x3d752f0a	0.059859313
34	0x3dad8075	0.08471767
35	0xbd3b26ee	-0.045691423
36	0x3c6f1308	0.01459194
37	0xbb53b8c0	-0.0032306165
38	0xbca80ed0	-0.020514876
39	0x3dd92467	0.10602646
40	0xbd0fb3fe	-0.035083763
41	0x3dbe90fb	0.093049966
42	0xbddc83e8	-0.107673466
43	0x3d6b36ea	0.057425417
44	0x3cb28c4c	0.021795414
45	0x3d793982	0.06084586
46	0xbd831e98	-0.0640232
47	0x3de0ce0b	0.109767996
48	0x3d7eb7ee	0.062187128
49	0xbd9d4db7	-0.076808386
50	0xbdc0c7ec	-0.09413132
51	0x3d538442	0.051639803
52	0xbd76e72c	-0.060279056
53	0xbd9edc38	-0.07756847
54	0x3dda9117	0.10672205
55	0x3db19c05	0.086723365
56	0xbdb41e21	-0.08794809
57	0xbd2b8888	-0.041878253
58	0x3d43755e	0.047719352
59	0xbc577378	-0.0131500885
60	0xbb55b640	-0.003260985
61	0x3c841b0c	0.016126178
62	0xbdb929bd	-0.09041164
63	0x3ced82dc	0.028993063
64	0xbd93de5f	-0.07220148
65	0xbde40178	-0.11133093
66	0xbc8dbe08	-0.017302528
67	0xbd432b8c	-0.04764895
68	0xbcc342a8	-0.023835495
69	0x3d07d27e	0.033159725
70	0xbd3fa3f0	-0.046787202
71	0xbc0ab0b0	-0.008464977
72	0x3dbbf825	0.09178189
73	0x3dca0247	0.098637156
74	0x3d6bf47a	0.057606198
75	0x3d833eb3	0.06408443
76	0xbd00d074	-0.031448796
77	0x3ceeac64	0.029134937

V.0.weight f4 [128, 78]
0	0xbd5002b1	-0.050783817
1	0xbdb6d505	-0.08927349
2	0xbd778bd2	-0.060436077
3	0x3d56554a	0.05232743
4	0xbcc1edf0	-0.023673028
5	0xbbbc2b20	-0.0057424456
6	0xbd258f44	-0.040419832
7	0xbcdd847c	-0.027040713
8	0x3d4d42e2	0.050112613
9	0x3da18cd9	0.07888193
10	0xbdc9ff3f	-0.098631375
11	0xbd18b8a2	-0.037285455
12	0x3cfb5034	0.030677892
13	0x3d099e3a	0.033598162
14	0x3d82796d	0.063708164
15	0xbc4bde18	-0.012443088
16	0x3da0fdb5	0.07860891
17	0xbb5a8f40	-0.0033349544
18	0x3c54d9c8	0.012991376
19	0xbd7d9835	-0.061912734
20	0x3db52853	0.08845582
21	0xbd3c5d80	-0.045987606
22	0xbdae19be	-0.08501004
23	0x3c15d810	0.009145752
24	0x3d04acf6	0.03239151
25	0x3db63485	0.08896736
26	0xb9199400	-0.00014646351
27	0x3de5230f	0.111883275
28	0x3dbaaacb	0.091146074
29	0x3d35d862	0.04439581
30	0x3c107dc0	0.008819044
31	0x3db47d03	0.088129066
32	0x3b772fc0	0.003771767
33	0x3d512356	0.05105909
34	0xbd50f29f	-0.05101263
35	0xbd8d4a5b	-0.06898948
36	0xbde10045	-0.109863795
37	0xbdc80f10	-0.09768498
38	0xbdb8c5f4	-0.090221316
39	0x3d5e5ff2	0.05429072
40	0xbdbe7b64	-0.09300879
41	0x3d949817	0.07255571
42	0xbd479a84	-0.048731342
43	0x3dac6cef	0.08419215
44	0x3de1484f	0.1100012
45	0x3dc20e8b	0.0947543
46	0x3d119856	0.03554567
47	0xbde0e89b	-0.10981866
48	0x3dd770af	0.105195396
49	0x3cbde64c	0.023181103
50	0xbd638b9f	-0.055553075
51	0xbdc3e103	-0.09564402
52	0x3d57288e	0.05252891
53	0xbd28475a	-0.04108367
54	0xbd8fc323	-0.07019641
55	0x3db316b3	0.08744564
56	0x3c9c26ac	0.019061409
57	0xbd9ba718	-0.0760023
58	0x3daf7b95	0.08568493
59	0xbb8beb00	-0.0042699575
60	0x3d089026	0.033340596
61	0xbd6c9acb	-0.05776481
62	0xbdb56f8e	-0.08859168
63	0xbdcfb7db	-0.101424895
64	0x3c9742cc	0.018464468
65	0xbc368e48	-0.011142321
66	0x3ba73ed0	0.0051039234
67	0xbd82ca75	-0.06386272
68	0x3d8db493	0.069192074
69	0x3d7a625a	0.06112895
70	0xbda2132c	-0.07913813
71	0xbdce0697	-0.10059851
72	0xbda583a0	-0.08081746
73	0x3d888db5	0.066676535
74	0xbdaeacc1	-0.08529044
75	0xbd030b92	-0.031993456
76	0x3d2135ce	0.039357953
77	0xbdde093c	-0.10841605
78	0x3d8f9c9b	0.07012292
79	0xbcd2cca8	-0.025732353
80	0x3c4b0cc8	0.012393184
81	0xbd9e75e2	-0.07737328
82	0xbd6f6d04	-0.058453575
83	0x3db6f9c9	0.089343615
84	0x3d827ef5	0.063718714
85	0xbc0073a8	-0.007840075
86	0xbd86eb34	-0.0658783
87	0x3cf3e704	0.029773243
88	0x3a668580	0.0008793697
89	0x3dc97077	0.09835904
90	0xbda7a5c9	-0.08185918
91	0xbd02293a	-0.031777598
92	0x3c5bd338	0.013417058
93	0xbdd43972	-0.10362519
94	0xbd69acb7	-0.05704948
95	0x3d738dc2	0.059461363
96	0xbdb04e1b	-0.086086474
97	0xbd545f25	-0.05184855
98	0xbdc30453	-0.09522309
99	0xbd33a18c	-0.043855235
100	0x3dad1fe9	0.08453352
101	0xbd865624	-0.06559399
102	0xbc7446d0	-0.014909461
103	0xbdb3ad96	-0.08773343
104	0xbcc370a0	-0.023857415
105	0xbd739029	-0.059463654
106	0xbd5b60b3	-0.053559016
107	0x3cce50f4	0.025185086
108	0xbd8637d6	-0.065536186
109	0xbd502a47	-0.05082157
110	0xbdb3b728	-0.08775169
111	0x3d0e2b5a	0.034709312
112	0xbddd49ea	-0.108051136
113	0x3d397baa	0.04528395
114	0xbd3b2a0e	-0.045694403
115	0xbd9eb212	-0.07748808
116	0xbceeedf8	-0.029166207
117	0x3d1ebd92	0.038755007
118	0x3daab593	0.08335414
119	0x3d9c1925	0.076219834
120	0x3cb4a974	0.022053458
121	0x3d656e76	0.056013547
122	0x3daa53f7	0.08316796
123	0x3b9744b0	0.0046163425
124	0xbdb8c5ac	-0.09022078
125	0x3de73055	0.112885155
126	0xbdd12262	-0.10211636
127	0x3d273f46	0.040831827
128	0xbc758c78	-0.014987104
129	0x3da87cf5	0.08226959
130	0xbda4526f	-0.080235355
131	0xbda5d400	-0.080970764
132	0x3d93609d	0.07196162
133	0xbc54bec0	-0.0129849315
134	0x3cd3845c	0.02581995
135	0x3bb69890	0.005572386
136	0xbd1e0fb0	-0.03858918
137	0xbdc78f4e	-0.0974413
138	0xbd2c14d2	-0.042012043
139	0x3d49d876	0.0492787
140	0x3d43d126	0.04780688
141	0xbbc0b570	-0.005881004
142	0xbdd4c446	-0.10388999
143	0xbd90a999	-0.07063598
144	0x3dcd4c49	0.10024316
145	0xbc877548	-0.016535416
146	0xbd9d1c12	-0.076713696
147	0xbdc9fe85	-0.09862999
148	0x3b5fcb20	0.0034148172
149	0xbc9e6148	-0.019333497
150	0x3ddccd1b	0.10781308
151	0xbcdc1158	-0.026863739
152	0xbdae69ca	-0.085162714
153	0x39f58b00	0.00046833605
154	0xbdca6f40	-0.098845005
155	0x3ca7c0f4	0.02047775
156	0xbd97272e	-0.0738052
157	0x3d656c52	0.056011505
158	0x3dc3a923	0.09553745
159	0x3b3aae00	0.002848506
160	0x3c8e351c	0.017359309
161	0x3d9cae4b	0.07650431
162	0xbd36c102	-0.04461766
163	0x3d11da46	0.035608552
164	0xbd8fb8da	-0.070176795
165	0x3d89b1dd	0.06723378
166	0x3db7af4f	0.08968984
167	0x3cab2084	0.020889528
168	0x3c9583d4	0.018251337
169	0x3d289bb2	0.041164108
170	0xbd4ceb16	-0.050028883
171	0x3d9c9343	0.076452754
172	0xbd9fcaac	-0.078023285
173	0xbbbde320	-0.0057948977
174	0x3c472f28	0.012157239
175	0x3cdd9a24	0.027051039
176	0x3d7f6002	0.06234742
177	0xbb023be0	-0.0019872114
178	0x3d3d635a	0.046237327
179	0xbd606e69	-0.054792795
180	0xbd95d8ea	-0.07316764
181	0xbc603258	-0.013683878
182	0xbd9f4cc1	-0.077783115
183	0xbd2a2f02	-0.041548736
184	0x3da7a389	0.08185489
185	0xbd814068	-0.06311113
186	0x3cdbe1c4	0.026841052
187	0xbd38f96a	-0.045159735
188	0xbd5015ba	-0.05080197
189	0x3d115362	0.03547991
190	0x3db096f7	0.08622544
191	0xbd82ce64	-0.06387022
192	0xbde0a597	-0.10969084
193	0x3c2b3b88	0.010451205
194	0x3d77e7ce	0.0605238
195	0xbda00384	-0.078131706
196	0x3d74e676	0.059790097
197	0xbda91459	-0.08255834
198	0xbd773bfb	-0.060359936
199	0x3c5ac448	0.013352461
200	0x3d46971e	0.04848396
201	0x3db174af	0.08664834
202	0x3d453d9e	0.048154466
203	0x3d0fed9e	0.03513872
204	0x3bfe3aa0	0.0077584535
205	0xbd8215d3	-0.06351819
206	0x3dccacb1	0.09993876
207	0xbd84742a	-0.06467469
208	0x3da0c741	0.07850505
209	0xbd4abb58	-0.04949507
210	0x3dc4cd71	0.09609497
211	0x3d8df6f3	0.069318675
212	0xbd2fb1aa	-0.042894043
213	0x3d97c18f	0.07409965
214	0xbd486bbc	-0.04893087
215	0x3cb1f43c	0.021722905
216	0xbcac2a1c	-0.021016173
217	0x3d020ec2	0.031752355
218	0x3da03139	0.078218885
219	0xbdd61349	-0.10452897
220	0x3d780226	0.060548924
221	0x3d7c8c2a	0.06165711
222	0x3dc0338b	0.09384831
223	0x3d3bfa5e	0.045893066
224	0xbbbb6660	-0.005718991
225	0xbdd51f3a	-0.104063466
226	0x3dac4781	0.08412076
227	0x3dad025f	0.08447718
228	0xbdddabae	-0.10823761
229	0xbd8bbbfc	-0.068229645
230	0x3d84cb9d	0.06484149
231	0xbda186cc	-0.078870386
232	0xbd653189	-0.055955444
233	0x3d8745af	0.06605088
234	0xbda6d09a	-0.08145256
235	0x3d8eb1d9	0.069675155
236	0xbdcb37eb	-0.09922775
237	0x3dbb18cb	0.09135588
238	0x3ca759d4	0.020428576
239	0xbdd49408	-0.10379797
240	0xbd6c59c9	-0.057702813
241	0x3d1a5c32	0.03768558
242	0xbd93368c	-0.07188138
243	0x3d90c287	0.07068353
244	0x3dc42699	0.095776744
245	0x3de076ed	0.10960183
246	0xbc756090	-0.014976636
247	0xbd82a9ef	-0.063800685
248	0x3d4842ae	0.048891716
249	0xbdcacd40	-0.099024296
250	0x3db42043	0.08795216
251	0xbd8cf3f8	-0.06882471
252	0xbd9e2416	-0.077217266
253	0xbc4eda28	-0.012625255
254	0xbcfd4104	-0.03091479
255	0xbae3fcc0	-0.0017394051

V.0.bias f4 [128]
0	0x3cf600a4	0.030029602
1	0x3de14c3d	0.110008694
2	0x3d298206	0.041383766
3	0xbd9d11bc	-0.07669398
4	0x3d8420c7	0.06451564
5	0xbdc9d5e6	-0.09855251
6	0x3dc0d145	0.09414915
7	0x3da97b81	0.082755096
8	0xbd810694	-0.06300083
9	0xbd8d708b	-0.069062315
10	0x3ce51bd4	0.027967371
11	0x3cea580c	0.028606437
12	0xbdc5b3dd	-0.09653447
13	0x3d24f5ae	0.04027336
14	0x3dcff065	0.101532735
15	0x3d816a03	0.06319048
16	0xbdad3bd6	-0.084586784
17	0xbda3be8f	-0.079953305
18	0xbde76aef	-0.11299693
19	0x3dddfc41	0.10839129
20	0x3d4c772e	0.049918346
21	0xbb2b7f60	-0.002616845
22	0xbd44ad34	-0.048016742
23	0x3dce0813	0.10060134
24	0xbc951088	-0.01819636
25	0xbb86e210	-0.004116304
26	0x3d3c8a8e	0.046030574
27	0xbd9590ee	-0.07303034
28	0x3d9060fd	0.07049749
29	0x3d02343e	0.031788103
30	0xbd77e94d	-0.060525227
31	0xbdd6b5e3	-0.10483911
32	0x3dc3979d	0.09550402
33	0x3d4f085a	0.050545074
34	0xbd71c6ce	-0.059027486
35	0x3bd947b0	0.0066308603
36	0x3db45c09	0.08806617
37	0x3c47f988	0.012205489
38	0xbd2b06a2	-0.041754372
39	0x3c2d09c8	0.010561414
40	0x3d7cc92a	0.061715282
41	0x3d22cf6a	0.039748587
42	0xbd9c49b2	-0.07631244
43	0x3ccde58c	0.02513387
44	0x3da399c7	0.07988315
45	0x3d373c3e	0.044735186
46	0xbd998798	-0.074965656
47	0xbd808795	-0.0627586
48	0xbd8ad2cd	-0.06778488
49	0xbdd18bf9	-0.10231776
50	0x3cf528a4	0.029926606
51	0x3d728662	0.05921019
52	0x3d30d722	0.043173917
53	0x3db32213	0.087467335
54	0x3ddfa0ef	0.109193675
55	0xbcea0b94	-0.028569974
56	0x3cbb80cc	0.022888564
57	0xbbadbcc0	-0.005302042
58	0xbd8a1df2	-0.06743993
59	0x3d0c7c5e	0.034298293
60	0xbd75f119	-0.06004438
61	0x3cfe2384	0.031022795
62	0x3dabade1	0.08382774
63	0xbcc21598	-0.023691937
64	0x3ca9eccc	0.020742796
65	0xbd61fc68	-0.055172354
66	0xbd3129a4	-0.043252602
67	0xbccdffec	-0.025146447
68	0x3d9f93fd	0.077918984
69	0x3d40e2f6	0.047091447
70	0x3c644df8	0.013934605
71	0x3c87f174	0.016594626
72	0x3d5a240a	0.053257026
73	0x3cb59a14	0.022168197
74	0x3d7910aa	0.060806908
75	0x3dadf2d3	0.08493581
76	0x3c725f88	0.014793284
77	0x3dc7a677	0.097485475
78	0xbd4d7c1e	-0.050167195
79	0xbce699ac	-0.028149448
80	0xbd9abdfc	-0.07555768
81	0xbd6008a9	-0.05469576
82	0x3d633ac2	0.055475958
83	0x3d84d0c1	0.06485129
84	0x3d43829e	0.047731988
85	0xbd97952a	-0.07401498
86	0xbd4c6e74	-0.049910024
87	0xbd694a11	-0.0569554
88	0xbd6fd4ee	-0.058552675
89	0x3c2285a0	0.009919554
90	0x3dca7837	0.098862104
91	0xbd6b4d52	-0.057446785
92	0xbadf9a80	-0.0017059594
93	0xbd9b6a4a	-0.075886324
94	0xbd2cbee4	-0.042174235
95	0xbc16a5e8	-0.009194829
96	0xbdaa34bb	-0.08310839
97	0x3d9996b7	0.0749945
98	0xbdd9fef6	-0.10644333
99	0xbd9d7f29	-0.076902695
100	0x3d69f96a	0.057122625
101	0x3cc85bd4	0.02445785
102	0x3d80b95b	0.06285354
103	0xbda07ca3	-0.078362726
104	0x3c4c06b8	0.012452774
105	0xbc709850	-0.014684752
106	0xbd163f12	-0.036681242
107	0x3c88df44	0.016708024
108	0xbdad9e64	-0.08477476
109	0xbd9a14d4	-0.07523504
110	0xbcf8930c	-0.030343555
111	0x3d2ba5a6	0.04190602
112	0x3d9ae545	0.07563261
113	0xbd13eba2	-0.03611339
114	0xbca576a8	-0.020198181
115	0x3dca8b99	0.098899074
116	0x3cc3c09c	0.023895554
117	0x3de449bf	0.111468785
118	0xbdc793f3	-0.09745016
119	0x3cc68c14	0.024236716
120	0xbd779f44	-0.060454622
121	0xbd126974	-0.0357451
122	0x3db04129	0.08606178
123	0xbcccea24	-0.02501399
124	0x3d3c7ab6	0.046015464
125	0xbda4a7e4	-0.08039835
126	0x3d0bdf72	0.03414864
127	0xbd2a9e6c	-0.04165499

V.2.weight f4 [1, 128]
0	0x3db36e7b	0.08761307
1	0xbcf75da2	-0.030196015
2	0x3daaabd9	0.083335586
3	0x3d582f4e	0.05277949
4	0xbda33c80	-0.07970524
5	0x3d98b313	0.07456031
6	0x3c24ca50	0.010058001
7	0xbdb4007e	-0.087891564
8	0xbd817a7b	-0.063221894
9	0x3c52b3c8	0.012860246
10	0x3d8d42e1	0.06897522
11	0xbbffc3e0	-0.0078053325
12	0xbda73f9c	-0.081664294
13	0xbd52397a	-0.051324345
14	0x3d9bbd09	0.07604415
15	0x3ce2b8e4	0.027676053
16	0xbd98cd70	-0.07461059
17	0xbd9308fa	-0.071794465
18	0xbc5a9620	-0.013341457
19	0x3d19ea52	0.03757698
20	0x3c98e5fc	0.018664353
21	0x3cb3ff20	0.021972239
22	0xbd643a09	-0.05571941
23	0xbd85e45c	-0.06537697
24	0xbb317fe0	-0.0027084276
25	0xbcf70b4c	-0.030156754
26	0x3d9f5679	0.07780165
27	0x3c242e00	0.010020733
28	0xbd847e86	-0.06469445
29	0x3c443fc0	0.01197809
30	0x3d96d40b	0.07364663
31	0xbd7adcba	-0.061245658
32	0x3cd0a750	0.025470406
33	0x3d2af08e	0.041733317
34	0xbb3c83a0	-0.0028764978
35	0xbd92fa8f	-0.071766965
36	0x3d1bbe52	0.0380233
37	0xbce3303e	-0.027732965
38	0xbd9d31b2	-0.07675494
39	0xbd741523	-0.05959047
40	0x3d65ba46	0.056085847
41	0x3c9cc9ac	0.019139133
42	0xbc603920	-0.013685495
43	0xbccc1510	-0.024912387
44	0xbd86595c	-0.06560013
45	0x3da1423b	0.078739606
46	0x3be573e0	0.0070023388
47	0x3d60382e	0.054741077
48	0x3d17f44e	0.03709822
49	0x3da25717	0.07926767
50	0xbd56964f	-0.05238944
51	0xbdaf7b52	-0.08568443
52	0xbd82562e	-0.06364094
53	0x3da13351	0.07871116
54	0x3db111cd	0.08645973
55	0x3cb8cb54	0.022557892
56	0x3db2b8d1	0.08726657
57	0x3c89b2f4	0.016808964
58	0x3d6dd6fa	0.058066346
59	0xbdb2c9b8	-0.08729881
60	0x3d08417a	0.03326557
61	0x3d1f0fd2	0.038833447
62	0xbd92004d	-0.071289636
63	0xbd3e559a	-0.046468355
64	0xbd85d79b	-0.06535264
65	0x3b83e7d0	0.004025437
66	0xbd8edee6	-0.06976108
67	0xbd9ca988	-0.07649523
68	0xbd74b9de	-0.05974757
69	0x3d96994f	0.0735346
70	0x3c3dd760	0.011586994
71	0x3b7f29a0	0.0038934723
72	0xbce6beba	-0.028167117
73	0x3d7ab0ae	0.06120365
74	0xbbe76fb0	-0.0070628747
75	0x3d5deb46	0.054179452
76	0xbb880970	-0.0041515157
77	0x3cc9968c	0.02460792
78	0xbd7e13ba	-0.06203053
79	0x3d9b31f3	0.075778864
80	0xbd06f3c4	-0.032947317
81	0xbbc2acb0	-0.005940996
82	0x3db4f513	0.08835807
83	0x3d3962f2	0.045260377
84	0xb940fe00	-0.00018405169
85	0xbd6b4fe5	-0.05744924
86	0x3d914009	0.07092292
87	0x3cc68b2c	0.024236284
88	0x3bd67a80	0.006545365
89	0x3d5c7d36	0.053830348
90	0xbd81a343	-0.06329968
91	0x3b5a1680	0.0033277571
92	0x3d576eee	0.052596025
93	0xbdad68f7	-0.08467286
94	0x3be17130	0.006879948
95	0xbd5ae222	-0.053438313
96	0x3d13720c	0.035997435
97	0xbd0fe80e	-0.035133414
98	0xbd496ee3	-0.049178015
99	0x3d113b46	0.03545692
100	0x3afc6440	0.0019255951
101	0x3d5f4dfa	0.054517724
102	0x3b9968a0	0.0046816617
103	0xbdaa0091	-0.08300889
104	0xbc0af8c0	-0.008482158
105	0xbd0c3485	-0.034229774
106	0x3daed01f	0.0853579
107	0xbc54bf38	-0.012985043
108	0x3a019a00	0.0004943907
109	0xbdabb5a4	-0.083842546
110	0x3b67f5a0	0.0035394207
111	0x3d809cc5	0.062799014
112	0xbd60e5ed	-0.054906774
113	0x3cc8b914	0.024502315
114	0xbd04df07	-0.032439258
115	0x3caebd70	0.021330565
116	0xbd06ed84	-0.032941356
117	0x3cea8e68	0.028632358
118	0x3baa7030	0.005201362
119	0xbcb1dbf0	-0.02171132
120	0x3c1d3ed8	0.009597503
121	0xbd6d2f8e	-0.05790668
122	0xbd78cdc5	-0.060743112
123	0xbcb1fd48	-0.02172722
124	0xbce10cf0	-0.02747199
125	0x3d02ee4e	0.031965546
126	0x3ca61764	0.020274825
127	0xbcf2b06a	-0.029625136
