models/qmix_agent_ep1000.pth (torch, 77932 bytes, 6 tensors)

fc1.weight f4 [128, 13]
00000000: b48b ddbd 44c4 ca3d 2268 73be 290b 10be
00000010: f8d5 993d ba69 dabd a8f8 4a3e 5cc5 ab3d
00000020: 8c03 1b3e d81e e4bc 58ac 563d 4eae 8dbe
00000030: a0ca e33d 282e 163e eb39 63be 44bf c7bd
00000040: b0b7 583d 3e5e 6cbe 4cee 5f3e a82c 063e
00000050: 584a 30bd ccb3 82bd 947d 463e 4058 bb3d
00000060: 2acc 45be 64d9 c03d c729 8dbe 5889 62be
00000070: 1a41 c4bd 1589 87be 8608 2c3e 6809 353d
00000080: 56f6 7d3e 58e0 933d 9446 0f3e 68e4 d63d
00000090: 081e b0bd 9e11 723e e06b edbc 95b5 0fbe
000000a0: 4068 c03b 0cb0 953d 1823 1a3d e262 01be
000000b0: bc68 14bd 701d 85be 98b6 4cbe 4c7c 403e
000000c0: 5a91 0c3e 5a58 70be 3f6c 893e eaaa c4bd
000000d0: 49be 19be c85d 62be 741c 833d 31cf 8d3e
000000e0: f060 373e 072c 1abe 9ac2 dabd d47c 1f3e
000000f0: aad5 7dbe 5239 09be c03f 4c3e 0680 8fbd
00000100: c0cc 243e a012 9bbc 7050 703d ecc2 7dbd
00000110: 9049 0c3e 00f9 75bb e8b7 083e cd2f 14be
00000120: b8a0 2b3e 455b 0fbe 74ba 5a3e 38d1 28bd
00000130: 1078 ccbc b2d6 d7bd c45e fc3d 9022 3d3d
00000140: 2bd8 6ebe 8a87 6fbe 1e96 68be feab 123e
00000150: c0d6 1c3d d096 f73c 829d 1d3e f896 6cbe
00000160: 8083 1c3d 4dd3 34be c80a 55bd 4cd0 a4bd
00000170: f0f9 5a3e a02a 323e a815 7e3d 2a82 5b3e
00000180: cc1e 71bd 28e3 0f3d 2009 993d e45e 72bd
00000190: 7ab3 03be b130 88be b8a1 38bd 3ce0 d8bd
000001a0: 08a7 e2bc fa42 2e3e 7686 6abe 722d 21be
000001b0: 96d5 483e bc26 b3bd 18f4 873d 1458 363e
000001c0: 2884 e53d d8c3 2d3d d856 79be 3417 ed3d
000001d0: 240a e13d 6077 4f3d cc1b 85be c07d 9cbc
000001e0: 7d10 853e e45a e3bd 9eb4 49be 30f4 f73d
000001f0: 188b eebc ada2 6bbe 4857 2f3e 5e25 19be
00000200: 8292 d5bd c06a bc3d a084 c23c 65b7 8b3e
00000210: 2c13 30be 14a2 3a3e 8ef7 55be 54d2 aa3d
00000220: dabf 073e a0db 653c 4c01 86bd 3ca6 c4bd
00000230: 40c7 33bc 3a27 653e bcbb 873d 3eff 6c3e
00000240: 4c2d 64bd f8e8 773d 40b9 61be 4cb6 aabd
00000250: ac23 5b3e e6df 7d3e 48ab 88be 607f 5c3e
00000260: d0f7 323e 9e4a 1dbe 184b 073e 70b8 cabc
00000270: 0a1a 293e 8c46 c1bd 0017 99bc f623 253e
00000280: 18cb fe3d a01d 64bc 5458 81be 6202 6c3e
00000290: 4416 f93d a49b e83d e44d 403e de53 84bd
000002a0: ab1b 803e d645 343e 5cca 66bd ce1e 0cbe
000002b0: 5810 28be 5602 5f3e 009b e23b 889d eabd
000002c0: a0ef 75be fc35 c23d f0dd 453e 3c1d 5b3e
000002d0: 004a d5ba 90a2 afbc b238 b3bd f04a 0bbd
000002e0: 9afe 9ebd 02f0 84be 101d 3cbe d480 1c3e
000002f0: d40c eabd 418f 813e b8dc 16bd c713 803e
00000300: c0ad a73c 4798 80be 5a81 abbd 4cf5 293e
00000310: aaf4 743e 6899 15bd 0000 a437 7281 cbbd
00000320: f226 323e 1a26 7b3e cc20 4b3e 68cd f9bd
00000330: e55d 62be 4c2a a93d 99bd 853e b882 41bd
00000340: f8f0 16bd 5bb7 86be dca7 b53d 62d6 7c3e
00000350: 4698 013e 4ab9 82be 0aeb 3dbe 34ad 1f3e
00000360: 5cb1 d73d 3c85 55bd d0bf bbbc b21c 90bd
00000370: 504d a83d c23b 55be d079 82bd 3abf 5a3e
00000380: b856 f3bd 524c 363e 4245 1cbe 36f5 573e
00000390: 3253 23be 3e5b 223e 1c85 213e 60af 483d
000003a0: e454 4d3e b89b 70bd 9420 26be efec 61be
000003b0: 20cc 183e be89 d1bd 602a 053e 8066 113c
000003c0: 48ef b8bd eb12 843e 3844 113d 41fb 89be
000003d0: b7f9 0dbe 2289 753e b85f 573e 8284 163e
000003e0: 8cd1 27be ec5c ce3d 1833 44bd 14c3 f13d
000003f0: 30db 2abe 305c 1b3e 5da0 8abe 7085 b4bc
-0.10817662 0.09900716 -0.23770192 -0.14066757 0.075115144 -0.10664697 0.19821417 0.08387253
0.15138072 -0.027846739 0.052410454 -0.27672046 0.11122632 0.14666045 -0.22190063 -0.09753278
0.052909553 -0.23082826 0.21868247 0.13102973 -0.04303965 -0.0638195 0.19383842 0.09147692
-0.19316164 0.09416464 -0.27570936 -0.22122705 -0.0958273 -0.26471773 0.16800126 0.044198424
0.24801001 0.072205245 0.13991767 0.10492784 -0.08599478 0.23639533 -0.028982103 -0.14034112
0.0058718026 0.07308969 0.037631124 -0.12635377 -0.036232695 -0.25999022 -0.19991529 0.18797415
0.13727322 -0.23471203 0.26840398 -0.09602912 -0.15013994 -0.22106087 0.064019114 0.27697137
0.17908072 -0.15055858 -0.106816486 0.15574962 -0.24788538 -0.13400772 0.19946194 -0.070068404
0.16093731 -0.01892978 0.05867046 -0.06195347 0.13699937 -0.0037532449 0.13351405 -0.1447136
0.16760528 -0.1399966 0.21360189 -0.04121515 -0.024959594 -0.10538997 0.123227626 0.04617554
-0.23324649 -0.23391548 -0.22713515 0.14323422 0.03829074 0.03022328 0.15392116 -0.23104465
0.038211346 -0.1765873 -0.052012235 -0.08047542 0.21384406 0.17399073 0.06203237 0.21436372
-0.05886726 0.035128742 0.074724436 -0.059172526 -0.12861434 -0.2659965 -0.045076102 -0.10589644
-0.027667537 0.17017737 -0.22902855 -0.15739992 0.19612727 -0.08747622 0.06638354 0.17807037
0.112068474 0.0424231 -0.24349535 0.11576691 0.10988262 0.050650954 -0.2599777 -0.019102931
0.25989142 -0.111013204 -0.19697806 0.12107122 -0.02911906 -0.23011275 0.17123139 -0.1495566
-0.10428335 0.092000484 0.023744881 0.27288356 -0.17194813 0.1822589 -0.20895216 0.08340898
0.1325678 0.014029413 -0.06543216 -0.09602019 -0.010972798 0.22378245 0.06627604 0.23144242
-0.05570726 0.06052491 -0.22043324 -0.083355516 0.21400326 0.24792442 -0.26693177 0.21532965
0.17477345 -0.15360495 0.1321224 -0.02474615 0.1651384 -0.09437284 -0.018687725 0.16127
0.12441081 -0.013923079 -0.25262702 0.23047784 0.1216245 0.11357811 0.18779713 -0.06461309
0.2502111 0.17604765 -0.05634533 -0.13683626 -0.16412485 0.21778235 0.00691545 -0.11455828
-0.24017191 0.09482953 0.19322944 0.21397871 -0.0016272664 -0.02143982 -0.08751048 -0.034007013
-0.07763405 -0.2596436 -0.18370461 0.15283519 -0.11428228 0.25304607 -0.036831588 0.2501509
0.020468593 -0.25116178 -0.08374281 0.1659748 0.23921457 -0.036523253 1.9550323e-05 -0.09936799
0.17397669 0.24526253 0.1983673 -0.12197381 -0.2210613 0.082600206 0.26121214 -0.047243804
-0.0368509 -0.26311764 0.08869907 0.24691156 0.12655744 -0.2553199 -0.18546692 0.15593415
0.105318755 -0.052129015 -0.022918612 -0.07036723 0.08217871 -0.20823577 -0.0637089 0.2136201
-0.11881775 0.17802551 -0.15260795 0.21089634 -0.15949705 0.15855119 0.15773433 0.048995376
0.20051914 -0.058742255 -0.16223365 -0.22063039 0.14921618 -0.1023135 0.13004446 0.008874536
-0.09030014 0.25795683 0.03546545 -0.26949504 -0.1386479 0.23978093 0.21032608 0.14698985
-0.1638853 0.10076317 -0.04790029 0.11804786 -0.16685176 0.15171885 -0.27075472 -0.022036284

fc1.bias f4 [128]
00000000: 3c35 953d 16f2 eebd e421 bf3d 6fb7 813e
00000010: 76fa 063e 3a6e 763e 1164 833e 38db 1fbd
00000020: 70bc 21be 4c9b 7bbd 1e85 99bd 9c70 14bd
00000030: 7526 813e fe24 703e 96f7 d8bd 70c3 6d3d
00000040: 2e49 773e 608a 2dbc 70d7 d33c 2c6d f23d
00000050: c0f9 7f3c 8e55 dcbd 7a84 eebd 1605 273e
00000060: f86f 09bd 00c8 9e3d a625 32be a983 04be
00000070: 4629 4ebe 0c61 bc3d 1ed4 3cbe a2ed f6bd
00000080: 0602 473e c003 67be af16 43be f076 2e3d
00000090: c820 28be f0b6 f13d 368f 513e e69e 09be
000000a0: 2a8e 313e 1ab0 7bbe 7aa6 84be 8a5d 86be
000000b0: c045 01bc f60a 89be f8de bd3d c392 74be
000000c0: 3e0f 4abe dedc 55be e0e0 d2bc fcd9 103e
000000d0: 245c 5bbe be13 14be a61e 653e 6093 0d3d
000000e0: 1c34 303e dbf0 12be 58db ee3d ae70 aabd
000000f0: 484f 143d 4118 80be 6e15 23be b832 243d
00000100: 0129 87be 90c7 59bd c019 153e cc23 193e
00000110: e021 9cbd a1fb 53be 18de 063d e8a6 583d
00000120: 8019 5d3b 3c8b 073e 7975 82be a4f6 e63d
00000130: 9e15 cfbd 4ea0 80be e8b3 30be 50ff 0c3d
00000140: 208c 2c3d b892 1bbd d0d7 65be 10a9 82bd
00000150: 8a3f a7bd 80a4 0d3e fae5 1dbe 0672 61be
00000160: 6e44 1cbe fdf1 893e 500b 7c3d 3638 3bbe
00000170: 289c 0d3d 6a7d b1bd 26f7 793e 905e 543d
00000180: 9e3e 20be f2fb 77be 45c2 7bbe aa52 23be
00000190: dcf7 9e3d be05 1a3e d023 bf3c 4814 08be
000001a0: 58f1 ae3d 2481 f83d c7d2 39be 00d3 febd
000001b0: deb6 e8bd 1821 3e3d 44eb c13d 24cb 3bbd
000001c0: 3af2 38be 2092 4a3e 20d8 f2bd 977b 8bbe
000001d0: cee7 3c3e 106f ca3c e06a 40bd 3e15 293e
000001e0: bca1 6fbe 2e9b 083e 441f 553e f890 34bd
000001f0: 787a f0bd 3054 f93c 0e80 5f3e 807d d63b
0.07285544 -0.11667268 0.09332636 0.2533526 0.13181481 0.24065486 0.25662282 -0.039027423
-0.1579454 -0.0614274 -0.07496093 -0.036240205 0.25224653 0.23451611 -0.10594098 0.05804771
0.2414901 -0.010592073 0.025859565 0.11837229 0.01562351 -0.10758506 -0.11646362 0.16310534
-0.033554047 0.07752991 -0.17397174 -0.1294085 -0.20132932 0.09198198 -0.18440291 -0.120570436
0.19434366 -0.22560024 -0.19051622 0.042593896 -0.16418755 0.11802471 0.20464787 -0.13439521
0.17339388 -0.24578896 -0.25908262 -0.2624324 -0.007890165 -0.26766175 0.092710435 -0.2388411
-0.19732377 -0.20885035 -0.025741994 0.14145654 -0.21421868 -0.14460656 0.22374973 0.034564376
0.17207378 -0.14349692 0.1166293 -0.08322273 0.03620842 -0.25018504 -0.15926144 0.04008743
-0.2639847 -0.053168833 0.14560604 0.14955062 -0.07623649 -0.20701458 0.03292665 0.05289355
0.0033737123 0.13236707 -0.2548025 0.11277512 -0.10111545 -0.25122303 -0.17256129 0.034423172
0.04212582 -0.03798172 -0.22445607 -0.06379902 -0.08166416 0.13832283 -0.1541976 -0.22016153
-0.15260479 0.26942435 0.061534226 -0.18283162 0.03457275 -0.08666499 0.24410686 0.051847994
-0.15648887 -0.24217203 -0.24585827 -0.15949503 0.07762119 0.15041253 0.023332506 -0.13288987
0.085421264 0.121340066 -0.18146811 -0.12442589 -0.11363004 0.04641828 0.094687015 -0.045848027
-0.18061152 0.19782305 -0.11857629 -0.2724273 0.18447801 0.024711162 -0.046976924 0.1651201
-0.2340154 0.13340446 0.20812708 -0.044083565 -0.11742109 0.030435652 0.21826193 0.0065457225

fc2.weight f4 [128, 128]
00000000: b868 313c 11eb 29bd 8dd2 4cbd 134a 953d
00000010: c563 0fbd a8f1 333c 0ff8 983d 20b6 0e3c
00000020: 0354 b1bd bbff 9a3d b287 f9bc 482c 943c
00000030: 6d6a b33d 0e6a 37bd 0022 d93b 1f1f 2bbd
00000040: a6a1 33bd 98c6 0b3c 2778 57bd 5539 b43d
00000050: c092 c8bb ec4c c6bc ca37 10bd 263f dcbc
00000060: 9a12 143d bca8 873c 7a64 603d 4871 9dbc
00000070: c7d2 903d 6c61 6cbd 878e 80bd 2059 89bb
00000080: e0fb 7fbc 70f4 9ebd d877 713c f971 a5bd
00000090: 0126 29bd c2bb 073d 0f7b 8d3d 9e27 6f3d
000000a0: 7c4b 7abd 20cd b5bc 2f07 63bd 10da d63c
000000b0: 7846 8bbd e053 51bb c8b7 cd3c 8339 973d
000000c0: 2b8f 973d 6023 bb3b d0ba f1bb 90d2 35bd
000000d0: 10c2 88bd 7419 83bc 2327 7cbd 7db0 9dbd
000000e0: b4d8 843c 98d0 cbbc 4672 57bd 5686 f7bc
000000f0: 505f ffbc 58ff 733c 80a9 88bb 8038 b43b
00000100: a305 a9bd 3a47 323d 30f3 013d 33cf 963d
00000110: 5201 5f3d 2f38 81bd 889b 58bc 5108 14bd
00000120: d676 333d 0015 d23c c0cb 983a 88da 023d
00000130: d26a 43bd 00cf 38bd c6de 3d3d 77a9 973d
00000140: 688c ca3c c045 673c d0a9 563c f839 aebd
00000150: 853d 993d d3d6 893d 67b4 95bd bca2 a93c
00000160: 636d 9b3d 88fc a0bc d0f8 373c 2e06 86bd
00000170: 2d7f 973d 8045 e1bb 0a25 36bd ce6e 773d
00000180: 7917 b33d e54c 2bbd e22b 7bbd 3898 4ebc
00000190: affd 823d d005 b9bc 1352 ad3d c859 b6bc
000001a0: d9ac 953d 7d33 0fbd 343e 81bc 451f 7abd
000001b0: c9d6 a4bd 625d 5c3d abf6 973d acd6 ad3c
000001c0: f8df a63c 9867 a4bc fc99 f53c 6fe0 943d
000001d0: ac4c 9ebc 9403 d7bc 53bc ab3d d2e3 5e3d
000001e0: 8a3a 783d 3c71 afbd 9a60 4e3d ab76 913d
000001f0: bc69 00bd ddaf a83d d008 4fbd ba6c 303d
00000200: 7a31 533d 18e0 753c b017 6f3c 6589 ab3d
00000210: 52db 763d d62d 563d 55a0 01bd 0821 b23c
00000220: 2b58 92bd e16c 79bd 9881 1dbd 62d7 2a3d
00000230: 80a1 32bd d211 fabc 0af1 323d 969b 82bd
00000240: 4a67 653d d068 c5bc d3b0 953d df19 a53d
00000250: 7035 3f3c ba2c 8dbd 0114 29bd da33 7f3d
00000260: 3af5 54bd eb04 9c3d f800 0b3d 0243 79bd
00000270: 2074 adbd e2d6 44bd a2db 4cbd e8c3 93bd
00000280: b40c 33bd 858e 0abd 9b84 b03d 7558 af3d
00000290: 81b7 8ebd 2a19 68bd 4d83 35bd f476 45bd
000002a0: cb78 31bd 39dd 87bd f5e2 a9bd b03c 8ebc
000002b0: 66ed 5e3d 39e7 963d c2c4 92bd cc7f 9ebc
000002c0: 9d18 14bd 1878 ac3c 1dbb 843d b430 8abc
000002d0: 1a71 5c3d 7b14 b13d 5966 ae3d 403e b2bd
000002e0: 967c 6d3d adc2 843d 33cc 91bd 7fc6 8a3d
000002f0: 5637 2b3d 325f 5f3d 90cc c43c e040 e6bb
00000300: 8ec4 2cbd c6d1 693d f9aa aa3d 2359 1abd
00000310: 3366 933d 7674 2dbd 18c8 ef3c 874d 28bd
00000320: 5fba b0bd d973 903d 2076 0b3b e6d9 1cbd
00000330: 3875 553c 6592 52bd 39c5 66bd b6ac 4ebd
00000340: 9335 8d3d a485 a0bc 9d4c 41bd 1552 903d
00000350: c309 a43d 6af6 0f3d 3889 a0bd 28b1 ff3c
00000360: 6753 88bd 5cac 9e3c 4d01 44bd b08f d1bc
00000370: 954d 35bd ae09 9abd 75e4 8dbd 4c86 78bd
00000380: 8ecb 363d 1003 1bbd 6832 733c aaf5 213d
00000390: c1df 6ebd 8533 4abd da74 413d 002d 553c
000003a0: 235f a83d f71d 52bd 30a4 b2bd 521c 1e3d
000003b0: a5ca 953d 2853 b0bc 28ed 353c bcff cd3c
000003c0: 385e 82bd 3aa5 233d 24c9 06bd f0f1 a9bd
000003d0: aecb b3bd 9814 7a3c a2a4 4a3d 4091 d4ba
000003e0: 6e6e 7e3d e0ec e0bc bc32 a8bd ddc3 ac3d
000003f0: a7a5 a5bd 7701 803d ce2c 213d c247 1d3d
0.01082819 -0.041483942 -0.050005484 0.07289519 -0.035007257 0.010982908 0.074691884 0.008710414
-0.08658602 0.07568308 -0.030460212 0.018087521 0.087605335 -0.044778876 0.0066263676 -0.041777726
-0.04385533 0.008531235 -0.05260482 0.08799998 -0.0061210096 -0.024206601 -0.035209455 -0.02688558
0.036150552 0.016559951 0.054783322 -0.019219056 0.070714526 -0.057710096 -0.06277185 -0.0041915327
-0.0156240165 -0.077614665 0.014738046 -0.08078379 -0.04129601 0.033138044 0.06908237 0.05838739
-0.061107144 -0.022192538 -0.055426773 0.026227027 -0.0680055 -0.0031940863 0.025112048 0.07384016
0.07400354 0.005711004 -0.007377006 -0.04439026 -0.066776395 -0.016003348 -0.06156076 -0.07699678
0.016216613 -0.024879739 -0.052599214 -0.030215424 -0.031173378 0.014892422 -0.0041705966 0.0054998994
-0.08253028 0.04352496 0.031726062 0.07363739 0.05444462 -0.06309544 -0.013220675 -0.036140744
0.043814503 0.02564478 0.0011657402 0.03194669 -0.047709294 -0.045119286 0.04635503 0.0740537
0.024725154 0.014115751 0.01310201 -0.085071504 0.07482437 0.067304276 -0.073098 0.02070748
0.07589223 -0.019651666 0.011228755 -0.065441474 0.07397304 -0.00687474 -0.044468917 0.060408406
0.087447114 -0.04182138 -0.061321147 -0.012609534 0.063960426 -0.02258578 0.0846292 -0.022259608
0.07308359 -0.034961212 -0.015776731 -0.061064977 -0.080487795 0.053799994 0.07420095 0.021220528
0.020370468 -0.020068929 0.029980652 0.0726937 -0.01932367 -0.026246823 0.08385529 0.054416485
0.060602702 -0.085665196 0.050385095 0.07102712 -0.031350836 0.08236668 -0.050545514 0.04307244
0.051560856 0.015007041 0.01459305 0.08375815 0.060267754 0.052289806 -0.031647045 0.021744266
-0.07145723 -0.06089485 -0.03845367 0.04170931 -0.04361105 -0.030526076 0.043686904 -0.06377332
0.056006707 -0.02409783 0.07309117 0.08061575 0.011670455 -0.068932965 -0.041278843 0.06230531
-0.05199168 0.076181255 0.03393647 -0.06085492 -0.08469415 -0.04805649 -0.050014146 -0.072151005
-0.043713287 -0.033827323 0.086190425 0.08561794 -0.06968594 -0.056664623 -0.04431467 -0.048209146
-0.043328088 -0.06633992 -0.08295242 -0.017362922 0.05442562 0.07368321 -0.07166435 -0.019348048
-0.036156286 0.021053359 0.064810015 -0.016868927 0.0538188 0.086464845 0.08515615 -0.087032795
0.057980143 0.06482444 -0.07119026 0.067761414 0.04180082 0.054534145 0.024023324 -0.0070267767
-0.042179637 0.05708482 0.08333392 -0.037682664 0.07197227 -0.042347394 0.029270217 -0.04108956
-0.086292975 0.07053346 0.0021280125 -0.03829374 0.013028435 -0.051409144 -0.05634043 -0.05045768
0.06894984 -0.019594975 -0.047192205 0.07046906 0.080096744 0.03514711 -0.078386724 0.031212404
-0.06656533 0.019369297 -0.047852803 -0.02558121 -0.04426344 -0.075213775 -0.0692834 -0.06067495
0.04462772 -0.037844718 0.014843561 0.039540924 -0.058318857 -0.04936554 0.04723058 0.013011217
0.08221271 -0.051298108 -0.087227225 0.038601227 0.07314042 -0.021524027 0.011103906 0.025146358
-0.06365627 0.039952494 -0.032906666 -0.08298099 -0.08779083 0.015263699 0.049473412 -0.0016217604
0.062117033 -0.0274567 -0.08212802 0.084357955 -0.08088236 0.062502794 0.03934937 0.03839851

fc2.bias f4 [128]
00000000: c805 153c 6619 603d 5523 33bd 76a5 633d
00000010: ff8d 9d3d cefe 3c3d adce 98bd d17a 9f3d
00000020: 983b 14bc 32e5 343d 40d9 63bb 1848 013c
00000030: 3cb0 9bbc 856f 96bd 831c 29bd d038 ecbb
00000040: 7d48 5dbd 82ff 9bbd aab2 753d d014 003c
00000050: 50eb 1d3c 7a41 293d ab41 49bd 200e 5b3b
00000060: 5686 1b3d 2fd7 95bd 266c 75bd 6c29 7abd
00000070: d90e a93d 54d3 76bd 05a2 b23d 3adf 06bd
00000080: 9d56 9b3d bfa6 37bd 9597 863d acf1 99bc
00000090: 5881 e53c afec 903d 0ca0 82bc 5997 833d
000000a0: da1b 96bd 6304 a63d 7842 7bbc 4dfd 45bd
000000b0: 30f6 93bb 68b0 a8bc 8a65 023d bdae 993d
000000c0: 5dfa 8b3d ac34 97bd ad96 2bbd ded2 3b3d
000000d0: 43e8 983d 5823 b0bd 64f9 c53c a05a c4bc
000000e0: 004c b53a 94da e83c 2964 b2bd 88be 46bc
000000f0: 6501 893d 69b1 823d eeae f7bc acd1 b4bd
00000100: e436 65bd e018 18bc 4d08 adbd f75b 85bd
00000110: 7c9e c4bc 36c5 7a3d 1eb5 59bd 0a7b a8bd
00000120: c3de 833d 502e 953c 0fd9 6ebd 8095 9eba
00000130: 2463 9c3c a8ef d53c 60ec 15bb 8ffa 823d
00000140: 1e00 01bd 467f 08bd def2 55bd 7767 b03d
00000150: 2cb6 f33c 18c6 663c 387a dbbc c9d9 b0bd
00000160: e673 343d fed3 703d 8091 5a3c 454f 95bd
00000170: 0073 233b 3ca9 98bc 758b 893d 6020 333c
00000180: b2c8 3a3d 0a48 efbc cd59 9c3d 37d0 a93d
00000190: 42c3 1f3d 60ed 403c f0f3 533c c838 84bd
000001a0: b286 7d3d 4036 90bc 9ca0 8a3c 8666 443d
000001b0: c32b 953d 30d4 983b 3611 743d 4c9c d73c
000001c0: 4abe eabc 3013 113c 90d4 bbbb 2855 16bc
000001d0: ecd7 023d b609 233d 387b 77bd e03d e63c
000001e0: 0987 33bd 0dc7 843d 00f2 7ab9 e484 cb3c
000001f0: 8065 6e3b 0776 82bd d920 a7bd c814 91bc
0.009095617 0.05471172 -0.043734867 0.055577718 0.07693099 0.04614144 -0.07461295 0.07787097
-0.009047411 0.04416389 -0.0034766942 0.007890724 -0.019004934 -0.073454894 -0.041286957 -0.007208921
-0.05402421 -0.076170936 0.05998484 0.007817462 0.009638622 0.04132221 -0.04913489 0.0033425167
0.03796991 -0.07316434 -0.05991759 -0.06107466 0.08254785 -0.060260132 0.08722309 -0.03292773
0.075848795 -0.044836756 0.06571881 -0.018791996 0.028015777 0.07076394 -0.015945457 0.06425352
-0.07329531 0.081063055 -0.015335672 -0.04833727 -0.004515432 -0.02059193 0.031835116 0.07504032
0.068348624 -0.07383093 -0.041891742 0.045855395 0.074661754 -0.08600491 0.02416677 -0.023968995
0.0013831854 0.028424539 -0.0871051 -0.012130387 0.06689719 0.063814946 -0.03023478 -0.08829054
-0.05596055 -0.009283274 -0.08448849 -0.065116815 -0.024001352 0.06122323 -0.053151242 -0.08226593
0.06438973 0.01821056 -0.058312472 -0.0012098998 0.019090243 0.026115254 -0.0022876486 0.063954465
-0.031494252 -0.033324502 -0.05223357 0.08613484 0.029749952 0.014085315 -0.026791677 -0.08635289
0.044055842 0.05879592 0.013340354 -0.0729051 0.0024940372 -0.018635385 0.067160524 0.010933012
0.045601554 -0.029209156 0.07634316 0.08291667 0.03900457 0.011775345 0.012936577 -0.06456143
0.061896034 -0.017603993 0.016922288 0.047949336 0.072837375 0.0046639666 0.059586726 0.026319645
-0.02865519 0.008854672 -0.0057321265 -0.009175576 0.0319442 0.039804183 -0.060420245 0.028105676
-0.04382995 0.064832784 -0.0002393201 0.02484364 0.0036376417 -0.06370168 -0.08160562 -0.017710105

fc3.weight f4 [4, 128]
00000000: 0853 003d 8270 0dbd d0eb a53b fb51 8cbd
00000010: 008a d8b9 fa4d 80bd 1127 b1bd 60b5 a13b
00000020: 1753 4fbd bac6 413d e9f2 813d 6861 af3c
00000030: 607c a1bb 3309 843d 60ef 123b 78a0 40bc
00000040: c682 6b3d 59c1 05bd 28fb 5fbd 4cc6 84bd
00000050: 1e2f 03bd 9aca 503d 2b35 84bd 5cc9 8c3c
00000060: 9010 7abd 2140 a93d 62c6 a4bd 505e 593c
00000070: 328f b3bd dc7f 853c 488c 2b3c 6800 793c
00000080: f020 623c 7ef5 633d e0f5 d5bb b086 a43c
00000090: 875b b03d f576 923d 812c 813d 48f8 0b3c
000000a0: 8545 a8bd 5c48 9abc c43c 0f3d 303e a1bd
000000b0: 2aeb 543d 0447 f5bc c77b 983d 7047 c73b
000000c0: 80e8 d8bb 3872 6ebc 30e0 d1bb 5b45 8c3d
000000d0: b841 963c 8f97 b43d 1895 703c 4061 d13a
000000e0: d2bf e8bc d3f7 833d 3218 2c3d 42ff 363d
000000f0: 001d ec3b c8be 673c 84d7 c63c f4ea d23c
00000100: 3f19 993d d387 a23d eb97 903d cab1 a0bd
00000110: 52ee 453d c84b dd3c 2098 683c 76ab 61bd
00000120: c33d 993d d6f0 4ebd 60bd 08bb 7ec8 103d
00000130: 7007 403c a759 43bd 93c9 953d 7a88 36bd
00000140: 3b3d 22bd de16 77bd c82c dcbc 644d d23c
00000150: a81f 843c c261 b1bd 1e0e 7f3d e080 97bc
00000160: 72a7 553d 98e4 b5bc e061 d2bc c37f a33d
00000170: dea9 6b3d 0277 293d 18b7 61bc f848 153c
00000180: 16e0 2e3d 40cd cdbc 17b9 943d 258c b2bd
00000190: d604 243d 58e0 39bc e3c6 9f3d 61cc b13d
000001a0: 90d7 59bc a2fc 5c3d ff31 98bd 7f43 76bd
000001b0: 4ca3 c9bc ca60 7d3d beac 59bd ce56 423d
000001c0: 0855 a4bc a788 85bd 39ae acbd 990a 963d
000001d0: b62d 713d 5441 d93c 9a14 05bd 2551 2cbd
000001e0: 767b 73bd af10 9c3d 5207 723d 5c4b 1abd
000001f0: b25c 463d 0600 4cbd db0b 8ebd d862 703c
00000200: 589e 053d 4e83 463d d183 aabd 3532 82bd
00000210: a4ae ddbc e2b7 203d efd8 993d c2fb 79bd
00000220: 1842 15bd 30b3 a53c f0ff e13c a932 17bd
00000230: 0204 89bd 0809 99bc 62db 94bd 1567 6ebd
00000240: 67bd 87bd 0bbe 1ebd 406a fb3b 526c 9ebd
00000250: b8be 9cbc 0040 c339 e6f5 96bd 7ef5 25bd
00000260: 6441 d53c 2cae 81bc ebac 9ebd 8f3d af3d
00000270: 168a 253d 00bd d1ba 90c4 053c 39a0 903d
00000280: 4da0 afbd 74c1 8dbc a6c0 a5bd 0bba 893d
00000290: d38e 903d 80a3 2ebb a2d8 71bd c0f4 db3b
000002a0: 3094 fbbb b65e 81bd 86af 703d 52a4 85bd
000002b0: 9913 b1bd 48a5 cf3c 7ed7 17bd 38c5 a9bd
000002c0: e766 a6bd 8670 b2bd 41f8 8b3d 538a 51bd
000002d0: c293 5f3d 1aaf b1bd ec4d 31bd 78d7 e43c
000002e0: ccbb 86bd 7245 5abd d00e b03c 6c1a 893c
000002f0: 9600 3bbd febc 653d c6ae 68bd 204b c83c
00000300: acf7 bfbc 28aa 10bc f912 13bd bc05 bfbc
00000310: 28c1 50bc de72 193d a040 e8bb e0b6 173b
00000320: ccb9 8dbd 629c e7bc 7eed 5b3d a70d 803d
00000330: 2492 adbd 6025 03bc 1e62 213d 5a7b 623d
00000340: 60dc 833b 003a 483c 1207 dbbc bc9a 9ebd
00000350: 9aa6 3e3d c673 753d f064 473c c5ae 0cbd
00000360: 743b 00bd 2721 a13d 37d8 943d 369f 6d3d
00000370: d1ae 34bd d53c a93d f03c 87bd c054 9f3a
00000380: 067c 363d 709d c4bb c0f3 373b f016 3dbd
00000390: 306d 93bd da46 1f3d 5e37 5abd 749f 133d
000003a0: 2382 8b3d f89f 973c b8aa 8fbc 0df5 883d
000003b0: 7880 32bc cb03 9e3d 2c7b 00bd 80d5 c53c
000003c0: 1741 953d 8495 8e3c e678 5e3d 879f 843d
000003d0: 1499 bb3c 8e13 92bd c0f0 81bb 20f9 d33c
000003e0: 2420 a2bd f6c1 143d d444 f43c 3091 48bd
000003f0: 09ab 9fbd 9234 2d3d ed42 ab3d 909b e53b
0.031329185 -0.034531124 0.0050635114 -0.06851574 -0.00041301548 -0.06264873 -0.086500295 0.0049349517
-0.05061635 0.04730866 0.063451596 0.021408752 -0.0049281567 0.06447067 0.002242051 -0.011757009
0.057497762 -0.032655094 -0.05468288 -0.064831346 -0.032027356 0.050974466 -0.064554535 0.01718586
-0.06105095 0.08264185 -0.08045651 0.013267115 -0.08767547 0.01629632 0.010470457 0.015197851
0.013801798 0.05565404 -0.0065295547 0.020083755 0.086112075 0.071515955 0.063073166 0.008543082
-0.08216385 -0.018833332 0.03497006 -0.078731894 0.051982082 -0.02994109 0.07445484 0.006081514
-0.006619513 -0.014553599 -0.006404899 0.06849166 0.018341884 0.0881797 0.014683984 0.0015974417
-0.02841178 0.06443753 0.042015262 0.044677027 0.0072056055 0.014144607 0.024272688 0.0257468
0.074755184 0.07936063 0.07060226 -0.078464106 0.048322983 0.027013674 0.014196426 -0.05509516
0.07482483 -0.050522648 -0.002086483 0.035347454 0.011720523 -0.04769292 0.07313838 -0.044563748
-0.039609175 -0.060324542 -0.026876822 0.025671668 0.016128376 -0.08661224 0.062269323 -0.01849407
0.05216164 -0.022203729 -0.025681436 0.07983353 0.057535045 0.04137326 -0.013776563 0.009111635
0.042694174 -0.025122285 0.072618656 -0.08718137 0.040043674 -0.011344992 0.078016065 0.0868156
-0.013296023 0.053951867 -0.07431411 -0.060122963 -0.024613999 0.061859883 -0.053143255 0.047446065
-0.020060077 -0.06520205 -0.08431668 0.0732624 0.058881484 0.026520409 -0.03249035 -0.042069573
-0.059443913 0.0762037 0.059089012 -0.037669525 0.048428245 -0.04980471 -0.06935855 0.014672004
0.03262171 0.048465066 -0.08325923 -0.063572325 -0.027060814 0.039237864 0.0751208 -0.06103111
-0.036439985 0.020227045 0.02758786 -0.036913548 -0.066902176 -0.018681064 -0.072684065 -0.058203775
-0.066279225 -0.038755458 0.007672578 -0.07735504 -0.01913391 0.00037240982 -0.0737112 -0.040517323
0.026032157 -0.015830122 -0.07747825 0.08556663 0.040414892 -0.0016001761 0.00816454 0.0706181
-0.08575497 -0.01730416 -0.080933854 0.06724938 0.070584916 -0.0026647747 -0.059044488 0.006712526
-0.0076775774 -0.06316893 0.058761142 -0.06525482 -0.08646316 0.025347367 -0.037070744 -0.082895696
-0.08125096 -0.087128684 0.0683446 -0.051157307 0.054584272 -0.08675976 -0.043287203 0.027934775
-0.06578788 -0.053288884 0.021491438 0.016736232 -0.045654856 0.05608844 -0.056807302 0.024449885
-0.023433529 -0.008829631 -0.035906766 -0.023318164 -0.012741365 0.03746306 -0.007087782 0.0023149773
-0.069202036 -0.028272811 0.053693287 0.06252604 -0.0847514 -0.008004516 0.039400212 0.05529342
0.0040240735 0.0122208595 -0.02673677 -0.07744357 0.046545602 0.059924863 0.0121700615 -0.03434636
-0.0313067 0.078676514 0.07267802 0.058013164 -0.04411203 0.08263556 -0.0660342 0.0012155995
0.04455187 -0.0060002133 0.002806887 -0.046164453 -0.0719856 0.03888593 -0.05327546 0.03604074
0.06811931 0.018508896 -0.01753746 0.06687365 -0.010894887 0.07715567 -0.031367466 0.024149656
0.072878055 0.017405279 0.054314516 0.0647574 0.022900142 -0.07132636 -0.003965467 0.025875628
-0.079162866 0.036317788 0.029817976 -0.048966587 -0.07796294 0.042286463 0.083623745 0.00700707

fc3.bias f4 [4]
00000000: f0cc a0bd 2b50 993d f2f5 1f3d a2d1 99bd
-0.07851589 0.07485994 0.03905291 -0.075106874
